ludmila.tflite (tflite, 60872 bytes, 18 tensors)

tfl.pseudo_qconst1 i1 [1, 1088] scale=0.0030042818 zero_point=0
0	0xa7	-0.26738107
1	0xad	-0.24935539
2	0xb9	-0.21330401
3	0xeb	-0.063089915
4	0xcf	-0.14720981
5	0xcf	-0.14720981
6	0x13	0.057081353
7	0xeb	-0.063089915
8	0x23	0.105149865
9	0x9f	-0.29141533
10	0xe2	-0.09012845
11	0x1d	0.08712417
12	0x1f	0.093132734
13	0xf0	-0.04806851
14	0xdb	-0.11115842
15	0x90	-0.33647954
16	0xf1	-0.045064226
17	0x06	0.01802569
18	0x00	0.0
19	0xaf	-0.24334683
20	0x0d	0.039055664
21	0xbf	-0.19527832
22	0x0e	0.042059943
23	0x0c	0.03605138
24	0xc2	-0.18626547
25	0xca	-0.16223122
26	0x06	0.01802569
27	0xbe	-0.1982826
28	0x0e	0.042059943
29	0x8c	-0.34849668
30	0xbc	-0.20429116
31	0xa3	-0.2793982
32	0xf4	-0.03605138
33	0x29	0.123175554
34	0x9e	-0.29441962
35	0xa4	-0.27639392
36	0x1b	0.08111561
37	0x14	0.060085636
38	0xed	-0.057081353
39	0x06	0.01802569
40	0x9c	-0.30042818
41	0x9a	-0.30643675
42	0xed	-0.057081353
43	0x86	-0.36652237
44	0xd2	-0.13819696
45	0xd8	-0.12017127
46	0x81	-0.3815438
47	0xe1	-0.093132734
48	0xd6	-0.12617983
49	0xe3	-0.08712417
50	0xa2	-0.2824025
51	0xcc	-0.15622266
52	0xa7	-0.26738107
53	0x22	0.10214558
54	0xff	-0.0030042818
55	0xe6	-0.07811133
56	0xd4	-0.1321884
57	0xbc	-0.20429116
58	0xe1	-0.093132734
59	0xbb	-0.20729545
60	0xec	-0.060085636
61	0xf4	-0.03605138
62	0xec	-0.060085636
63	0xaa	-0.25836822
64	0xcd	-0.15321837
65	0xad	-0.24935539
66	0xd8	-0.12017127
67	0xd7	-0.123175554
68	0xb8	-0.2163083
69	0xcc	-0.15622266
70	0x0e	0.042059943
71	0xe4	-0.084119886
72	0x1f	0.093132734
73	0xa7	-0.26738107
74	0xe4	-0.084119886
75	0x0b	0.0330471
76	0x0b	0.0330471
77	0xe3	-0.08712417
78	0xb5	-0.22532113
79	0xc7	-0.17124406
80	0x00	0.0
81	0xea	-0.0660942
82	0xde	-0.10214558
83	0xc0	-0.19227403
84	0xe7	-0.075107045
85	0xe4	-0.084119886
86	0xff	-0.0030042818
87	0x04	0.012017127
88	0xee	-0.054077074
89	0xf1	-0.045064226
90	0x19	0.075107045
91	0xe4	-0.084119886
92	0xed	-0.057081353
93	0xa9	-0.2613725
94	0xcd	-0.15321837
95	0xbb	-0.20729545
96	0xfc	-0.012017127
97	0x0d	0.039055664
98	0x9d	-0.2974239
99	0xda	-0.114162706
100	0x1b	0.08111561
101	0x17	0.06909848
102	0x04	0.012017127
103	0x25	0.11115842
104	0xc4	-0.1802569
105	0xc5	-0.17725262
106	0xeb	-0.063089915
107	0x9c	-0.30042818
108	0xce	-0.15021409
109	0xcc	-0.15622266
110	0x91	-0.3334753
111	0xfa	-0.01802569
112	0xf5	-0.0330471
113	0x05	0.015021409
114	0xe2	-0.09012845
115	0xc5	-0.17725262
116	0xc7	-0.17124406
117	0xfc	-0.012017127
118	0x0f	0.045064226
119	0xe2	-0.09012845
120	0xc7	-0.17124406
121	0xab	-0.25536394
122	0x11	0.05107279
123	0xe3	-0.08712417
124	0xed	-0.057081353
125	0x1c	0.084119886
126	0xee	-0.054077074
127	0xae	-0.24635111
128	0xc6	-0.17424834
129	0xc2	-0.18626547
130	0xef	-0.05107279
131	0xf7	-0.027038537
132	0xd6	-0.12617983
133	0xa8	-0.2643768
134	0x05	0.015021409
135	0xed	-0.057081353
136	0x20	0.09613702
137	0xd2	-0.13819696
138	0x06	0.01802569
139	0xff	-0.0030042818
140	0xf1	-0.045064226
141	0xe9	-0.06909848
142	0xe3	-0.08712417
143	0xca	-0.16223122
144	0xfe	-0.0060085636
145	0x06	0.01802569
146	0x06	0.01802569
147	0xe7	-0.075107045
148	0x06	0.01802569
149	0xd1	-0.14120124
150	0xf7	-0.027038537
151	0x0e	0.042059943
152	0xec	-0.060085636
153	0xc9	-0.1652355
154	0xf0	-0.04806851
155	0xd4	-0.1321884
156	0x16	0.0660942
157	0xad	-0.24935539
158	0xd2	-0.13819696
159	0xd2	-0.13819696
160	0x0a	0.030042818
161	0x18	0.07210276
162	0xb9	-0.21330401
163	0xdc	-0.10815415
164	0xf6	-0.030042818
165	0x17	0.06909848
166	0x09	0.027038537
167	0x23	0.105149865
168	0xba	-0.21029973
169	0xb2	-0.23433398
170	0xf1	-0.045064226
171	0xa7	-0.26738107
172	0xdf	-0.0991413
173	0xd7	-0.123175554
174	0xdf	-0.0991413
175	0xed	-0.057081353
176	0xd9	-0.11716699
177	0xf3	-0.039055664
178	0xc9	-0.1652355
179	0x04	0.012017127
180	0xcd	-0.15321837
181	0xff	-0.0030042818
182	0xf5	-0.0330471
183	0xf1	-0.045064226
184	0xdf	-0.0991413
185	0xba	-0.21029973
186	0x01	0.0030042818
187	0xfa	-0.01802569
188	0xe1	-0.093132734
189	0x14	0.060085636
190	0xf6	-0.030042818
191	0xca	-0.16223122
192	0xbe	-0.1982826
193	0xce	-0.15021409
194	0xeb	-0.063089915
195	0x02	0.0060085636
196	0xda	-0.114162706
197	0xca	-0.16223122
198	0xff	-0.0030042818
199	0xe2	-0.09012845
200	0xf4	-0.03605138
201	0xf4	-0.03605138
202	0xe4	-0.084119886
203	0x01	0.0030042818
204	0x01	0.0030042818
205	0xf8	-0.024034254
206	0xef	-0.05107279
207	0xc3	-0.18326119
208	0xfc	-0.012017127
209	0x19	0.075107045
210	0xe6	-0.07811133
211	0xde	-0.10214558
212	0x09	0.027038537
213	0xf6	-0.030042818
214	0xee	-0.054077074
215	0xe6	-0.07811133
216	0xd1	-0.14120124
217	0xe5	-0.08111561
218	0x16	0.0660942
219	0xd1	-0.14120124
220	0x01	0.0030042818
221	0xca	-0.16223122
222	0xda	-0.114162706
223	0xd7	-0.123175554
224	0xfe	-0.0060085636
225	0x16	0.0660942
226	0xc6	-0.17424834
227	0xbc	-0.20429116
228	0xe7	-0.075107045
229	0x11	0.05107279
230	0xf5	-0.0330471
231	0x1d	0.08712417
232	0xdb	-0.11115842
233	0xda	-0.114162706
234	0xe1	-0.093132734
235	0xbe	-0.1982826
236	0xeb	-0.063089915
237	0xd9	-0.11716699
238	0xe1	-0.093132734
239	0xf1	-0.045064226
240	0x0b	0.0330471
241	0xfa	-0.01802569
242	0xe6	-0.07811133
243	0x02	0.0060085636
244	0xb9	-0.21330401
245	0xfb	-0.015021409
246	0xef	-0.05107279
247	0x0b	0.0330471
248	0xfc	-0.012017127
249	0xed	-0.057081353
250	0x09	0.027038537
251	0xe8	-0.07210276
252	0x06	0.01802569
253	0x00	0.0
254	0xec	-0.060085636
255	0xd0	-0.14420553

tfl.pseudo_qconst3 i1 [64, 1, 1, 64]
0	0x24	36
1	0xd7	-41
2	0xd5	-43
3	0xae	-82
4	0x18	24
5	0x05	5
6	0x7f	127
7	0xd6	-42
8	0x33	51
9	0x14	20
10	0x5e	94
11	0x50	80
12	0xbf	-65
13	0x02	2
14	0x19	25
15	0x23	35
16	0x14	20
17	0x6a	106
18	0xfe	-2
19	0xba	-70
20	0x1e	30
21	0x15	21
22	0xf3	-13
23	0xd8	-40
24	0x07	7
25	0x03	3
26	0xe3	-29
27	0xca	-54
28	0x30	48
29	0x0e	14
30	0x0f	15
31	0xf1	-15
32	0x1a	26
33	0x2f	47
34	0xeb	-21
35	0xfc	-4
36	0xd4	-44
37	0xee	-18
38	0x31	49
39	0xea	-22
40	0x00	0
41	0xc4	-60
42	0x41	65
43	0x20	32
44	0x2f	47
45	0x03	3
46	0xf2	-14
47	0xd5	-43
48	0xca	-54
49	0x60	96
50	0xb8	-72
51	0x02	2
52	0xe9	-23
53	0xf7	-9
54	0xb5	-75
55	0x33	51
56	0xc2	-62
57	0x5a	90
58	0xbb	-69
59	0x07	7
60	0xdb	-37
61	0xe6	-26
62	0xde	-34
63	0x22	34
64	0xb1	-79
65	0xe8	-24
66	0x1a	26
67	0xab	-85
68	0xe5	-27
69	0x08	8
70	0xe8	-24
71	0x2b	43
72	0xbf	-65
73	0x4a	74
74	0x24	36
75	0x77	119
76	0xbe	-66
77	0xcc	-52
78	0xac	-84
79	0x78	120
80	0x64	100
81	0x67	103
82	0xd7	-41
83	0xb0	-80
84	0xaa	-86
85	0xd9	-39
86	0x02	2
87	0x05	5
88	0xe1	-31
89	0xee	-18
90	0xd4	-44
91	0xaf	-81
92	0x32	50
93	0x2f	47
94	0x2b	43
95	0xcc	-52
96	0xc5	-59
97	0x59	89
98	0x2e	46
99	0x09	9
100	0x39	57
101	0x0c	12
102	0x52	82
103	0x52	82
104	0xcf	-49
105	0x36	54
106	0x51	81
107	0x1f	31
108	0xf5	-11
109	0x2e	46
110	0x2c	44
111	0x02	2
112	0xc5	-59
113	0x55	85
114	0x0b	11
115	0x73	115
116	0x03	3
117	0x10	16
118	0xdc	-36
119	0x64	100
120	0x82	-126
121	0x6f	111
122	0x15	21
123	0x0d	13
124	0x82	-126
125	0xe5	-27
126	0x0c	12
127	0x81	-127
128	0xd3	-45
129	0x49	73
130	0xc5	-59
131	0xfa	-6
132	0x4f	79
133	0xb7	-73
134	0xb4	-76
135	0x49	73
136	0x35	53
137	0xaa	-86
138	0xbb	-69
139	0x25	37
140	0x14	20
141	0x53	83
142	0x70	112
143	0xce	-50
144	0x00	0
145	0xc4	-60
146	0xf4	-12
147	0x49	73
148	0x53	83
149	0x5c	92
150	0x3f	63
151	0x17	23
152	0xa2	-94
153	0x41	65
154	0x43	67
155	0x7f	127
156	0xc3	-61
157	0xab	-85
158	0x0b	11
159	0x67	103
160	0x0e	14
161	0x01	1
162	0x10	16
163	0xef	-17
164	0x18	24
165	0xcc	-52
166	0xdd	-35
167	0xee	-18
168	0xd5	-43
169	0x48	72
170	0x38	56
171	0xde	-34
172	0xf6	-10
173	0xab	-85
174	0xc9	-55
175	0x2a	42
176	0x00	0
177	0x09	9
178	0xd4	-44
179	0x13	19
180	0x26	38
181	0x6d	109
182	0xf4	-12
183	0xda	-38
184	0x42	66
185	0x02	2
186	0xe5	-27
187	0x60	96
188	0x06	6
189	0x1c	28
190	0x1b	27
191	0x15	21
192	0x22	34
193	0x09	9
194	0xfa	-6
195	0x01	1
196	0x4d	77
197	0x0f	15
198	0xd8	-40
199	0x15	21
200	0xf3	-13
201	0x39	57
202	0x08	8
203	0xc4	-60
204	0xfb	-5
205	0x24	36
206	0xd9	-39
207	0x1a	26
208	0x3e	62
209	0x9d	-99
210	0xf0	-16
211	0x28	40
212	0x1c	28
213	0xae	-82
214	0x23	35
215	0x07	7
216	0xe9	-23
217	0x08	8
218	0x17	23
219	0x0f	15
220	0x23	35
221	0xde	-34
222	0xbf	-65
223	0x27	39
224	0x7f	127
225	0x3d	61
226	0x03	3
227	0xe4	-28
228	0xda	-38
229	0x11	17
230	0x1d	29
231	0xfd	-3
232	0xfd	-3
233	0xd3	-45
234	0xff	-1
235	0xc5	-59
236	0xeb	-21
237	0xf0	-16
238	0xc5	-59
239	0x1b	27
240	0x43	67
241	0xaa	-86
242	0xb9	-71
243	0xdd	-35
244	0xf0	-16
245	0x0b	11
246	0xde	-34
247	0x58	88
248	0x1e	30
249	0xbe	-66
250	0xca	-54
251	0xda	-38
252	0x32	50
253	0x08	8
254	0xd3	-45
255	0x51	81

tfl.pseudo_qconst5 i1 [1, 23, 1, 64]
0	0xbe	-66
1	0xc4	-60
2	0xf0	-16
3	0x69	105
4	0x7a	122
5	0x3a	58
6	0x30	48
7	0x07	7
8	0xbe	-66
9	0x7c	124
10	0x38	56
11	0x39	57
12	0x05	5
13	0x1c	28
14	0x13	19
15	0x98	-104
16	0xca	-54
17	0x83	-125
18	0x28	40
19	0x18	24
20	0xf3	-13
21	0x04	4
22	0x5a	90
23	0xdd	-35
24	0xe7	-25
25	0xe9	-23
26	0xae	-82
27	0xf0	-16
28	0xfb	-5
29	0x3e	62
30	0x46	70
31	0x7f	127
32	0xeb	-21
33	0xc6	-58
34	0x04	4
35	0x3a	58
36	0x3a	58
37	0x50	80
38	0xbb	-69
39	0xcc	-52
40	0x7f	127
41	0x02	2
42	0x89	-119
43	0x60	96
44	0xc6	-58
45	0x46	70
46	0xfa	-6
47	0x23	35
48	0xcb	-53
49	0x46	70
50	0x7f	127
51	0xc1	-63
52	0xb4	-76
53	0x7f	127
54	0x5b	91
55	0xcf	-49
56	0x59	89
57	0xa0	-96
58	0x7f	127
59	0xd1	-47
60	0x49	73
61	0xda	-38
62	0x0d	13
63	0x81	-127
64	0xb4	-76
65	0xfc	-4
66	0x21	33
67	0x7f	127
68	0x7f	127
69	0x56	86
70	0x3a	58
71	0xaa	-86
72	0xa8	-88
73	0x69	105
74	0x45	69
75	0x6d	109
76	0xe9	-23
77	0xd8	-40
78	0xa0	-96
79	0xad	-83
80	0xe4	-28
81	0x99	-103
82	0x64	100
83	0xf8	-8
84	0xd8	-40
85	0xe2	-30
86	0xff	-1
87	0x12	18
88	0xcc	-52
89	0xc6	-58
90	0x0c	12
91	0x2b	43
92	0xe0	-32
93	0x49	73
94	0x3f	63
95	0x51	81
96	0xdc	-36
97	0xd9	-39
98	0x07	7
99	0x1f	31
100	0x4a	74
101	0x4b	75
102	0xa3	-93
103	0xf9	-7
104	0x19	25
105	0xd1	-47
106	0x83	-125
107	0xf1	-15
108	0xcd	-51
109	0x5c	92
110	0x10	16
111	0x13	19
112	0xcf	-49
113	0x7a	122
114	0x65	101
115	0x95	-107
116	0xa4	-92
117	0x5b	91
118	0x7f	127
119	0xff	-1
120	0x62	98
121	0x81	-127
122	0x36	54
123	0x82	-126
124	0x3a	58
125	0xa0	-96
126	0xe4	-28
127	0x8c	-116
128	0x02	2
129	0xf6	-10
130	0x66	102
131	0x72	114
132	0x5d	93
133	0x1e	30
134	0x1f	31
135	0x9b	-101
136	0xd6	-42
137	0x29	41
138	0x4f	79
139	0x7f	127
140	0x1f	31
141	0x1a	26
142	0xcb	-53
143	0x87	-121
144	0xbe	-66
145	0x81	-127
146	0x03	3
147	0x25	37
148	0xf6	-10
149	0xfd	-3
150	0xea	-22
151	0x2e	46
152	0xf0	-16
153	0xd0	-48
154	0xbf	-65
155	0x4e	78
156	0xea	-22
157	0x1c	28
158	0x24	36
159	0x4a	74
160	0xdf	-33
161	0x81	-127
162	0xe6	-26
163	0x16	22
164	0x59	89
165	0xfb	-5
166	0x81	-127
167	0xf9	-7
168	0x6c	108
169	0xce	-50
170	0x9b	-101
171	0xc1	-63
172	0xec	-20
173	0x14	20
174	0x2b	43
175	0xe7	-25
176	0xcf	-49
177	0x7f	127
178	0x4e	78
179	0xbd	-67
180	0xb9	-71
181	0x52	82
182	0x7a	122
183	0xf8	-8
184	0x40	64
185	0xae	-82
186	0x69	105
187	0x84	-124
188	0x57	87
189	0xc0	-64
190	0xb1	-79
191	0xcc	-52
192	0xe5	-27
193	0x43	67
194	0xe9	-23
195	0x68	104
196	0x2d	45
197	0x60	96
198	0x12	18
199	0xdf	-33
200	0xf5	-11
201	0x08	8
202	0x3e	62
203	0x71	113
204	0x27	39
205	0x88	-120
206	0xb2	-78
207	0x9a	-102
208	0xd1	-47
209	0xb4	-76
210	0x4e	78
211	0x4e	78
212	0xe1	-31
213	0xd5	-43
214	0xa6	-90
215	0x0e	14
216	0xb9	-71
217	0xd4	-44
218	0xa7	-89
219	0x54	84
220	0xf0	-16
221	0x52	82
222	0x05	5
223	0x00	0
224	0xdf	-33
225	0xc2	-62
226	0xdf	-33
227	0xef	-17
228	0x37	55
229	0xb3	-77
230	0x9e	-98
231	0x06	6
232	0x05	5
233	0xff	-1
234	0x8a	-118
235	0xb6	-74
236	0xdc	-36
237	0x4f	79
238	0x34	52
239	0xd3	-45
240	0xc6	-58
241	0x7b	123
242	0x26	38
243	0xaf	-81
244	0xdf	-33
245	0x1f	31
246	0x43	67
247	0x28	40
248	0x0d	13
249	0xa0	-96
250	0x47	71
251	0x86	-122
252	0x7f	127
253	0xbb	-69
254	0x32	50
255	0x06	6

tfl.pseudo_qconst7 i1 [64, 1, 1, 64]
0	0xa6	-90
1	0x00	0
2	0x32	50
3	0xf1	-15
4	0xfc	-4
5	0x75	117
6	0x24	36
7	0xd7	-41
8	0x12	18
9	0xe3	-29
10	0x18	24
11	0x19	25
12	0xe8	-24
13	0xfd	-3
14	0x87	-121
15	0x0a	10
16	0x24	36
17	0x00	0
18	0x46	70
19	0xce	-50
20	0xbe	-66
21	0x43	67
22	0x1e	30
23	0xb9	-71
24	0x3d	61
25	0x4f	79
26	0xef	-17
27	0xd0	-48
28	0xff	-1
29	0x1d	29
30	0xe7	-25
31	0xaf	-81
32	0x2f	47
33	0x75	117
34	0x05	5
35	0x15	21
36	0x4b	75
37	0xc4	-60
38	0xdd	-35
39	0xe6	-26
40	0x70	112
41	0x23	35
42	0xa7	-89
43	0xee	-18
44	0x3c	60
45	0x0a	10
46	0x28	40
47	0xe4	-28
48	0xdd	-35
49	0xf3	-13
50	0xbd	-67
51	0x0f	15
52	0xe8	-24
53	0x81	-127
54	0xfa	-6
55	0x15	21
56	0xe0	-32
57	0xfc	-4
58	0xd6	-42
59	0x04	4
60	0xe8	-24
61	0x31	49
62	0x9e	-98
63	0xf6	-10
64	0xf5	-11
65	0xa7	-89
66	0xf7	-9
67	0x4f	79
68	0x04	4
69	0xf6	-10
70	0xdb	-37
71	0xeb	-21
72	0xdc	-36
73	0x09	9
74	0x0c	12
75	0x08	8
76	0x81	-127
77	0xf9	-7
78	0xcf	-49
79	0x37	55
80	0x23	35
81	0xb6	-74
82	0xf5	-11
83	0xb2	-78
84	0xfa	-6
85	0xe8	-24
86	0xd5	-43
87	0x3f	63
88	0xb4	-76
89	0xc0	-64
90	0x1b	27
91	0x02	2
92	0x7c	124
93	0x0f	15
94	0x49	73
95	0x2c	44
96	0xd2	-46
97	0xe4	-28
98	0x63	99
99	0x17	23
100	0xe0	-32
101	0x05	5
102	0xb0	-80
103	0x92	-110
104	0x05	5
105	0x2d	45
106	0xeb	-21
107	0x21	33
108	0xc6	-58
109	0x36	54
110	0xa9	-87
111	0xfe	-2
112	0x09	9
113	0xfa	-6
114	0xaa	-86
115	0x25	37
116	0x65	101
117	0x4b	75
118	0x21	33
119	0x10	16
120	0xe3	-29
121	0xf6	-10
122	0x49	73
123	0x88	-120
124	0xd7	-41
125	0x3c	60
126	0xbc	-68
127	0xf0	-16
128	0xe5	-27
129	0x97	-105
130	0xcd	-51
131	0xc9	-55
132	0x83	-125
133	0xef	-17
134	0x03	3
135	0xd0	-48
136	0xd0	-48
137	0x18	24
138	0xf2	-14
139	0x48	72
140	0x33	51
141	0x36	54
142	0xa8	-88
143	0xd2	-46
144	0xd9	-39
145	0x4f	79
146	0xf9	-7
147	0xd6	-42
148	0x16	22
149	0x6a	106
150	0x0e	14
151	0x08	8
152	0x39	57
153	0xcc	-52
154	0xd4	-44
155	0x07	7
156	0xbb	-69
157	0xfd	-3
158	0xc1	-63
159	0x30	48
160	0x33	51
161	0xd6	-42
162	0x82	-126
163	0x5a	90
164	0x06	6
165	0xb8	-72
166	0x03	3
167	0xf1	-15
168	0x25	37
169	0xd0	-48
170	0x64	100
171	0x21	33
172	0xff	-1
173	0x08	8
174	0xce	-50
175	0x21	33
176	0x3b	59
177	0x81	-127
178	0x03	3
179	0xf4	-12
180	0xcf	-49
181	0x32	50
182	0xbe	-66
183	0x79	121
184	0xeb	-21
185	0x38	56
186	0x6a	106
187	0xcd	-51
188	0xf7	-9
189	0xf2	-14
190	0x1e	30
191	0x39	57
192	0xea	-22
193	0xa4	-92
194	0xf0	-16
195	0xd4	-44
196	0xdc	-36
197	0xe2	-30
198	0x39	57
199	0x06	6
200	0x07	7
201	0xef	-17
202	0xf8	-8
203	0xf6	-10
204	0x28	40
205	0x0b	11
206	0x07	7
207	0xdd	-35
208	0xe4	-28
209	0x57	87
210	0xd8	-40
211	0xb0	-80
212	0x22	34
213	0xc7	-57
214	0x08	8
215	0x28	40
216	0x44	68
217	0xf9	-7
218	0xc7	-57
219	0x20	32
220	0x29	41
221	0x1c	28
222	0xe4	-28
223	0xa9	-87
224	0xb2	-78
225	0x42	66
226	0xf9	-7
227	0x2b	43
228	0x29	41
229	0x46	70
230	0xde	-34
231	0x01	1
232	0xcb	-53
233	0x0a	10
234	0x77	119
235	0xe5	-27
236	0x7f	127
237	0x8f	-113
238	0xe9	-23
239	0x22	34
240	0x40	64
241	0xa1	-95
242	0xdc	-36
243	0x0d	13
244	0x0d	13
245	0x16	22
246	0x14	20
247	0xd9	-39
248	0xf4	-12
249	0xda	-38
250	0x61	97
251	0x45	69
252	0xfe	-2
253	0xe2	-30
254	0xfb	-5
255	0xe7	-25

tfl.pseudo_qconst9 i1 [1, 15, 1, 32]
0	0x81	-127
1	0x1d	29
2	0x49	73
3	0x20	32
4	0x63	99
5	0x27	39
6	0x03	3
7	0x68	104
8	0x74	116
9	0xa4	-92
10	0x7e	126
11	0x06	6
12	0x6f	111
13	0x81	-127
14	0xd0	-48
15	0xd8	-40
16	0x7f	127
17	0x71	113
18	0xf6	-10
19	0x63	99
20	0x7f	127
21	0x1c	28
22	0x8e	-114
23	0x13	19
24	0x8b	-117
25	0xcb	-53
26	0xd4	-44
27	0x68	104
28	0x04	4
29	0x27	39
30	0x7f	127
31	0xe3	-29
32	0xab	-85
33	0xeb	-21
34	0x1d	29
35	0x2d	45
36	0x45	69
37	0x38	56
38	0x2d	45
39	0x4b	75
40	0x6a	106
41	0x98	-104
42	0x55	85
43	0xfc	-4
44	0x62	98
45	0xe0	-32
46	0xc7	-57
47	0x3b	59
48	0x6c	108
49	0x5f	95
50	0x18	24
51	0x29	41
52	0x0d	13
53	0x19	25
54	0xd5	-43
55	0x30	48
56	0x85	-123
57	0xf3	-13
58	0x2e	46
59	0x7f	127
60	0xc2	-62
61	0xfb	-5
62	0x75	117
63	0x03	3
64	0xcd	-51
65	0xf2	-14
66	0x18	24
67	0x34	52
68	0x7f	127
69	0x03	3
70	0x34	52
71	0xc2	-62
72	0x43	67
73	0x86	-122
74	0x7f	127
75	0x79	121
76	0x52	82
77	0xd2	-46
78	0xd1	-47
79	0x13	19
80	0x25	37
81	0x7f	127
82	0x18	24
83	0x65	101
84	0xf9	-7
85	0xf6	-10
86	0x5f	95
87	0x51	81
88	0xfb	-5
89	0x13	19
90	0x23	35
91	0x6d	109
92	0x14	20
93	0xeb	-21
94	0x16	22
95	0xfb	-5
96	0xb7	-73
97	0xf1	-15
98	0x10	16
99	0x10	16
100	0x49	73
101	0x2d	45
102	0xb1	-79
103	0x98	-104
104	0x2c	44
105	0xdd	-35
106	0x60	96
107	0x59	89
108	0x2a	42
109	0x89	-119
110	0x3a	58
111	0xfa	-6
112	0x2e	46
113	0x70	112
114	0x27	39
115	0x4b	75
116	0x26	38
117	0x37	55
118	0x7f	127
119	0x12	18
120	0x9d	-99
121	0xf9	-7
122	0x55	85
123	0x43	67
124	0x7f	127
125	0xce	-50
126	0x0a	10
127	0x55	85
128	0xf0	-16
129	0xdc	-36
130	0x30	48
131	0xf9	-7
132	0x11	17
133	0x1e	30
134	0xb1	-79
135	0x01	1
136	0x97	-105
137	0xae	-82
138	0x23	35
139	0x5d	93
140	0x1c	28
141	0xd2	-46
142	0x6c	108
143	0x27	39
144	0x47	71
145	0x57	87
146	0x37	55
147	0x0c	12
148	0xe6	-26
149	0x4f	79
150	0x0f	15
151	0x0e	14
152	0xf7	-9
153	0xe7	-25
154	0x01	1
155	0x5e	94
156	0x6f	111
157	0x21	33
158	0x02	2
159	0x46	70
160	0xe1	-31
161	0xdd	-35
162	0xfe	-2
163	0x43	67
164	0x70	112
165	0xdd	-35
166	0xbd	-67
167	0x02	2
168	0x04	4
169	0xc6	-58
170	0x2b	43
171	0x61	97
172	0xfc	-4
173	0x06	6
174	0xc0	-64
175	0x1c	28
176	0x0a	10
177	0x26	38
178	0x34	52
179	0x17	23
180	0xd2	-46
181	0x40	64
182	0x4e	78
183	0x0b	11
184	0x29	41
185	0x36	54
186	0x40	64
187	0xf4	-12
188	0x92	-110
189	0x46	70
190	0xdc	-36
191	0x1b	27
192	0xbb	-69
193	0x08	8
194	0xcc	-52
195	0xe3	-29
196	0x70	112
197	0xf7	-9
198	0xd2	-46
199	0xef	-17
200	0xb3	-77
201	0xbf	-65
202	0xde	-34
203	0x3e	62
204	0xaa	-86
205	0x1b	27
206	0x6c	108
207	0xe8	-24
208	0x05	5
209	0x30	48
210	0xf8	-8
211	0x47	71
212	0xc2	-62
213	0xf0	-16
214	0x3e	62
215	0x03	3
216	0x09	9
217	0xea	-22
218	0x24	36
219	0xce	-50
220	0x0d	13
221	0x02	2
222	0xd3	-45
223	0x2d	45
224	0xd7	-41
225	0xe4	-28
226	0xee	-18
227	0x08	8
228	0x60	96
229	0x1a	26
230	0x89	-119
231	0xed	-19
232	0xf4	-12
233	0x06	6
234	0xf2	-14
235	0x6b	107
236	0x81	-127
237	0x0a	10
238	0xa8	-88
239	0x34	52
240	0x0c	12
241	0x4c	76
242	0x2d	45
243	0x2d	45
244	0xb0	-80
245	0xf4	-12
246	0x4a	74
247	0x46	70
248	0x4f	79
249	0x1f	31
250	0xba	-70
251	0xc7	-57
252	0x84	-124
253	0x45	69
254	0x14	20
255	0xe8	-24

tfl.pseudo_qconst11 i1 [1, 9, 1, 32]
0	0x9c	-100
1	0xc7	-57
2	0xc3	-61
3	0x7f	127
4	0x17	23
5	0x1f	31
6	0x5c	92
7	0x09	9
8	0x0b	11
9	0x9d	-99
10	0xd2	-46
11	0xaf	-81
12	0x4f	79
13	0x63	99
14	0x08	8
15	0x07	7
16	0x05	5
17	0x81	-127
18	0xe8	-24
19	0x0f	15
20	0x0e	14
21	0xd4	-44
22	0x13	19
23	0x79	121
24	0xa2	-94
25	0x2f	47
26	0x34	52
27	0x9f	-97
28	0xbd	-67
29	0x34	52
30	0x7f	127
31	0x24	36
32	0xf9	-7
33	0x96	-106
34	0xb2	-78
35	0x0f	15
36	0x20	32
37	0x17	23
38	0x0b	11
39	0xdd	-35
40	0xfd	-3
41	0x8c	-116
42	0x81	-127
43	0x84	-124
44	0x6a	106
45	0xd6	-42
46	0xe8	-24
47	0x12	18
48	0xf6	-10
49	0xea	-22
50	0x19	25
51	0x13	19
52	0x3e	62
53	0xc0	-64
54	0x6e	110
55	0x68	104
56	0x81	-127
57	0x7f	127
58	0x26	38
59	0x49	73
60	0xb3	-77
61	0xdb	-37
62	0x2a	42
63	0xe6	-26
64	0x44	68
65	0x7f	127
66	0xf5	-11
67	0x07	7
68	0xde	-34
69	0x58	88
70	0x63	99
71	0xfb	-5
72	0x77	119
73	0xb4	-76
74	0x9c	-100
75	0x81	-127
76	0xab	-85
77	0x6a	106
78	0x5b	91
79	0xd2	-46
80	0x69	105
81	0x29	41
82	0xd5	-43
83	0xe2	-30
84	0x31	49
85	0x81	-127
86	0xf7	-9
87	0x57	87
88	0xad	-83
89	0x1e	30
90	0xd3	-45
91	0xd1	-47
92	0x0c	12
93	0x06	6
94	0xf3	-13
95	0x2a	42
96	0x94	-108
97	0xda	-38
98	0x06	6
99	0x2a	42
100	0xf4	-12
101	0x7f	127
102	0xd1	-47
103	0xc3	-61
104	0x6a	106
105	0x24	36
106	0x41	65
107	0x8d	-115
108	0x11	17
109	0x2d	45
110	0xb2	-78
111	0x0f	15
112	0xa5	-91
113	0x06	6
114	0xfb	-5
115	0xf8	-8
116	0x02	2
117	0xbb	-69
118	0xf9	-7
119	0x48	72
120	0x94	-108
121	0x96	-106
122	0x45	69
123	0xa7	-89
124	0x59	89
125	0x9e	-98
126	0xae	-82
127	0x11	17
128	0x64	100
129	0x54	84
130	0x0d	13
131	0xcc	-52
132	0x0e	14
133	0x6d	109
134	0x7e	126
135	0xaf	-81
136	0x7d	125
137	0x58	88
138	0xd5	-43
139	0xf0	-16
140	0xd2	-46
141	0xd7	-41
142	0x13	19
143	0x0f	15
144	0xfd	-3
145	0xf4	-12
146	0x20	32
147	0xdf	-33
148	0x05	5
149	0xf2	-14
150	0x0a	10
151	0x97	-105
152	0xab	-85
153	0xd4	-44
154	0x23	35
155	0x36	54
156	0x7f	127
157	0xc9	-55
158	0xfe	-2
159	0xe2	-30
160	0x72	114
161	0xa0	-96
162	0x52	82
163	0xd3	-45
164	0xc0	-64
165	0x60	96
166	0x7f	127
167	0xb8	-72
168	0xce	-50
169	0x53	83
170	0x31	49
171	0xa0	-96
172	0xca	-54
173	0x30	48
174	0x81	-127
175	0xfa	-6
176	0xc2	-62
177	0xd8	-40
178	0xd7	-41
179	0xbc	-68
180	0x1b	27
181	0x07	7
182	0xdd	-35
183	0x0d	13
184	0xba	-70
185	0xab	-85
186	0x3d	61
187	0x8e	-114
188	0x77	119
189	0x40	64
190	0xbe	-66
191	0x1e	30
192	0x98	-104
193	0x0e	14
194	0xcc	-52
195	0xfe	-2
196	0x8b	-117
197	0x22	34
198	0x64	100
199	0x8c	-116
200	0x7f	127
201	0xbf	-65
202	0x1b	27
203	0xc2	-62
204	0x81	-127
205	0xad	-83
206	0x17	23
207	0x54	84
208	0x81	-127
209	0x37	55
210	0x3e	62
211	0xc4	-60
212	0x5c	92
213	0x2a	42
214	0x4f	79
215	0x81	-127
216	0x17	23
217	0xbf	-65
218	0x6f	111
219	0x90	-112
220	0x0a	10
221	0x81	-127
222	0x9e	-98
223	0xba	-70
224	0x7f	127
225	0x27	39
226	0x81	-127
227	0xbc	-68
228	0xbb	-69
229	0xfc	-4
230	0xf1	-15
231	0xb0	-80
232	0x59	89
233	0xcf	-49
234	0x6d	109
235	0xda	-38
236	0x37	55
237	0x3a	58
238	0x2a	42
239	0x53	83
240	0xdf	-33
241	0x4b	75
242	0x5a	90
243	0xa7	-89
244	0x64	100
245	0xe4	-28
246	0x7f	127
247	0x8e	-114
248	0x49	73
249	0xbe	-66
250	0x7f	127
251	0x62	98
252	0xe9	-23
253	0x83	-125
254	0xdf	-33
255	0x81	-127

tfl.pseudo_qconst13 i1 [64, 1, 1, 64]
0	0x36	54
1	0x1c	28
2	0xf8	-8
3	0x0d	13
4	0x04	4
5	0xc5	-59
6	0x09	9
7	0x12	18
8	0x1d	29
9	0x2c	44
10	0x3d	61
11	0x05	5
12	0xe5	-27
13	0xfa	-6
14	0xf9	-7
15	0x1b	27
16	0xb1	-79
17	0x39	57
18	0xaf	-81
19	0x58	88
20	0xc2	-62
21	0x2a	42
22	0x03	3
23	0xdb	-37
24	0x18	24
25	0x1f	31
26	0xf3	-13
27	0xa0	-96
28	0xd4	-44
29	0x24	36
30	0x42	66
31	0x41	65
32	0xc0	-64
33	0x4c	76
34	0xa1	-95
35	0xd2	-46
36	0xf6	-10
37	0xb0	-80
38	0xae	-82
39	0x2d	45
40	0xe2	-30
41	0xda	-38
42	0xe5	-27
43	0x07	7
44	0x5c	92
45	0x24	36
46	0xfd	-3
47	0x4e	78
48	0xc9	-55
49	0x12	18
50	0x17	23
51	0xcd	-51
52	0x17	23
53	0x02	2
54	0xe7	-25
55	0x29	41
56	0x81	-127
57	0x4b	75
58	0x28	40
59	0x99	-103
60	0xc9	-55
61	0x40	64
62	0xcc	-52
63	0xcf	-49
64	0xf5	-11
65	0x36	54
66	0xf8	-8
67	0xf2	-14
68	0xf7	-9
69	0x1b	27
70	0x40	64
71	0x0c	12
72	0xde	-34
73	0x61	97
74	0xce	-50
75	0x7f	127
76	0xc9	-55
77	0x6a	106
78	0x29	41
79	0xfe	-2
80	0x55	85
81	0x18	24
82	0x1a	26
83	0xfd	-3
84	0x4a	74
85	0x12	18
86	0xff	-1
87	0x3c	60
88	0x5c	92
89	0x2b	43
90	0x0e	14
91	0xd4	-44
92	0xfc	-4
93	0x14	20
94	0xec	-20
95	0x1e	30
96	0xa3	-93
97	0xff	-1
98	0x38	56
99	0xde	-34
100	0x14	20
101	0xdb	-37
102	0xd3	-45
103	0x61	97
104	0xc3	-61
105	0x0d	13
106	0x04	4
107	0xb3	-77
108	0xe4	-28
109	0xb1	-79
110	0xe9	-23
111	0x27	39
112	0xd9	-39
113	0x43	67
114	0xef	-17
115	0xee	-18
116	0xad	-83
117	0x0c	12
118	0xe8	-24
119	0xe7	-25
120	0xb2	-78
121	0x48	72
122	0xb3	-77
123	0xf8	-8
124	0xee	-18
125	0xec	-20
126	0xf1	-15
127	0xab	-85
128	0x0b	11
129	0xfb	-5
130	0xf0	-16
131	0xb9	-71
132	0x22	34
133	0x21	33
134	0xc2	-62
135	0xc0	-64
136	0xb5	-75
137	0xba	-70
138	0xb9	-71
139	0x57	87
140	0x47	71
141	0xc8	-56
142	0xbe	-66
143	0xf8	-8
144	0x30	48
145	0x10	16
146	0xb8	-72
147	0x2e	46
148	0xd4	-44
149	0x11	17
150	0xcb	-53
151	0x36	54
152	0x2f	47
153	0x07	7
154	0x35	53
155	0xc2	-62
156	0x55	85
157	0xe0	-32
158	0x3b	59
159	0x35	53
160	0x93	-109
161	0x00	0
162	0xc9	-55
163	0xf2	-14
164	0xed	-19
165	0x04	4
166	0x00	0
167	0xda	-38
168	0x13	19
169	0x02	2
170	0xb6	-74
171	0x21	33
172	0x2d	45
173	0x16	22
174	0xf1	-15
175	0x16	22
176	0xf0	-16
177	0x38	56
178	0x3e	62
179	0x0d	13
180	0x0a	10
181	0x57	87
182	0x11	17
183	0xe3	-29
184	0x17	23
185	0xc8	-56
186	0x82	-126
187	0xab	-85
188	0xbe	-66
189	0x04	4
190	0x25	37
191	0x7f	127
192	0x02	2
193	0xf3	-13
194	0x00	0
195	0x25	37
196	0x3f	63
197	0xae	-82
198	0x1e	30
199	0xde	-34
200	0x09	9
201	0x45	69
202	0x2c	44
203	0x0e	14
204	0xb3	-77
205	0xde	-34
206	0x14	20
207	0xd3	-45
208	0x07	7
209	0x06	6
210	0x20	32
211	0xf5	-11
212	0xe5	-27
213	0x02	2
214	0xce	-50
215	0xf0	-16
216	0x09	9
217	0x03	3
218	0x3a	58
219	0x34	52
220	0xf6	-10
221	0xf1	-15
222	0x01	1
223	0x07	7
224	0xcd	-51
225	0x9c	-100
226	0xc3	-61
227	0x06	6
228	0xd4	-44
229	0xd0	-48
230	0xe9	-23
231	0x14	20
232	0xbe	-66
233	0x81	-127
234	0x21	33
235	0x68	104
236	0xf0	-16
237	0xb1	-79
238	0x18	24
239	0xdb	-37
240	0xfa	-6
241	0xe1	-31
242	0xf4	-12
243	0x18	24
244	0xe5	-27
245	0x18	24
246	0xcd	-51
247	0xbb	-69
248	0xe3	-29
249	0xdf	-33
250	0x0c	12
251	0x09	9
252	0xf7	-9
253	0x0a	10
254	0xd4	-44
255	0xff	-1

tfl.pseudo_qconst15 i1 [1, 11, 1, 32]
0	0x5e	94
1	0x82	-126
2	0x10	16
3	0xa4	-92
4	0xd8	-40
5	0x7f	127
6	0x64	100
7	0x81	-127
8	0xf6	-10
9	0x57	87
10	0x16	22
11	0x9c	-100
12	0x39	57
13	0x1e	30
14	0x2c	44
15	0x12	18
16	0x56	86
17	0x7f	127
18	0x7f	127
19	0x17	23
20	0x2a	42
21	0xcf	-49
22	0xc5	-59
23	0x02	2
24	0x53	83
25	0x90	-112
26	0x93	-109
27	0xd2	-46
28	0x34	52
29	0xe9	-23
30	0xed	-19
31	0xbd	-67
32	0xb9	-71
33	0x8c	-116
34	0xfc	-4
35	0xe1	-31
36	0xb3	-77
37	0x45	69
38	0xdd	-35
39	0x17	23
40	0x32	50
41	0x5b	91
42	0xa7	-89
43	0xd0	-48
44	0xbf	-65
45	0x51	81
46	0x36	54
47	0xb1	-79
48	0x7f	127
49	0x43	67
50	0x04	4
51	0x0f	15
52	0x7f	127
53	0xb0	-80
54	0x99	-103
55	0x17	23
56	0x28	40
57	0x81	-127
58	0xd5	-43
59	0xcd	-51
60	0x51	81
61	0xcc	-52
62	0xcf	-49
63	0xad	-83
64	0x4f	79
65	0xe2	-30
66	0x7f	127
67	0x46	70
68	0x3e	62
69	0xce	-50
70	0x3f	63
71	0x41	65
72	0x10	16
73	0x61	97
74	0xfb	-5
75	0xaf	-81
76	0x8c	-116
77	0x62	98
78	0xfb	-5
79	0xd8	-40
80	0x47	71
81	0x18	24
82	0xc8	-56
83	0x5f	95
84	0xe5	-27
85	0x25	37
86	0x9c	-100
87	0xcf	-49
88	0x44	68
89	0xdb	-37
90	0xbc	-68
91	0x45	69
92	0x3f	63
93	0xed	-19
94	0x99	-103
95	0xd1	-47
96	0x67	103
97	0xb3	-77
98	0x30	48
99	0x7f	127
100	0x71	113
101	0x2a	42
102	0xd3	-45
103	0x88	-120
104	0xe5	-27
105	0x5e	94
106	0x24	36
107	0xc4	-60
108	0x8a	-118
109	0x63	99
110	0x81	-127
111	0x4c	76
112	0x3f	63
113	0x2c	44
114	0x14	20
115	0x5f	95
116	0xec	-20
117	0x2a	42
118	0xde	-34
119	0x22	34
120	0xc7	-57
121	0xe4	-28
122	0x29	41
123	0x4d	77
124	0x52	82
125	0xfb	-5
126	0x81	-127
127	0xbc	-68
128	0x38	56
129	0xd8	-40
130	0xe6	-26
131	0x60	96
132	0x73	115
133	0xea	-22
134	0x8f	-113
135	0xba	-70
136	0xc2	-62
137	0x6d	109
138	0xbe	-66
139	0xb2	-78
140	0x8b	-117
141	0x7f	127
142	0xc8	-56
143	0x7f	127
144	0xf1	-15
145	0x30	48
146	0x78	120
147	0xaa	-86
148	0xea	-22
149	0xff	-1
150	0xd6	-42
151	0xbc	-68
152	0xd3	-45
153	0xf6	-10
154	0x0f	15
155	0x59	89
156	0x4c	76
157	0xd2	-46
158	0x8c	-116
159	0x31	49
160	0x5f	95
161	0x20	32
162	0x2e	46
163	0xea	-22
164	0x2c	44
165	0x22	34
166	0x0c	12
167	0xdd	-35
168	0xd1	-47
169	0xf8	-8
170	0x32	50
171	0xaa	-86
172	0xe7	-25
173	0x0d	13
174	0xe8	-24
175	0x39	57
176	0x0c	12
177	0xe6	-26
178	0x55	85
179	0x8d	-115
180	0xf0	-16
181	0xb8	-72
182	0xc7	-57
183	0x42	66
184	0x16	22
185	0x8b	-117
186	0x05	5
187	0xdb	-37
188	0x1b	27
189	0x23	35
190	0xa3	-93
191	0x77	119
192	0x1f	31
193	0xe0	-32
194	0x15	21
195	0x2b	43
196	0xd0	-48
197	0x44	68
198	0x21	33
199	0xaa	-86
200	0xef	-17
201	0xd7	-41
202	0x26	38
203	0xca	-54
204	0x0c	12
205	0x42	66
206	0x69	105
207	0x23	35
208	0x2f	47
209	0xfc	-4
210	0x4f	79
211	0x2b	43
212	0xb3	-77
213	0xd6	-42
214	0x99	-103
215	0x60	96
216	0xaf	-81
217	0xa8	-88
218	0xe8	-24
219	0xfd	-3
220	0x7f	127
221	0x9b	-101
222	0xb6	-74
223	0x7f	127
224	0x1e	30
225	0x3f	63
226	0xb4	-76
227	0x0b	11
228	0xc6	-58
229	0x59	89
230	0x04	4
231	0xdd	-35
232	0xb8	-72
233	0x93	-109
234	0x5e	94
235	0xfa	-6
236	0x81	-127
237	0xf0	-16
238	0x32	50
239	0x10	16
240	0x5b	91
241	0xde	-34
242	0x4f	79
243	0x4b	75
244	0xfb	-5
245	0x7f	127
246	0x8f	-113
247	0x1e	30
248	0x08	8
249	0xda	-38
250	0x1b	27
251	0xfe	-2
252	0x3d	61
253	0x81	-127
254	0x0c	12
255	0x78	120

tfl.pseudo_qconst17 i1 [1, 7, 1, 32]
0	0xe7	-25
1	0x7f	127
2	0xfe	-2
3	0xfd	-3
4	0x2b	43
5	0x4d	77
6	0x38	56
7	0x12	18
8	0x7f	127
9	0x44	68
10	0x33	51
11	0xb2	-78
12	0x81	-127
13	0x25	37
14	0x7d	125
15	0x56	86
16	0xf7	-9
17	0xeb	-21
18	0x01	1
19	0xed	-19
20	0x56	86
21	0x20	32
22	0xb4	-76
23	0xde	-34
24	0xf9	-7
25	0xe8	-24
26	0xa4	-92
27	0xd8	-40
28	0x11	17
29	0x34	52
30	0xce	-50
31	0xc0	-64
32	0xfc	-4
33	0x44	68
34	0xee	-18
35	0xd0	-48
36	0x3f	63
37	0x2d	45
38	0x81	-127
39	0xba	-70
40	0x57	87
41	0xeb	-21
42	0x69	105
43	0xd7	-41
44	0xed	-19
45	0x9b	-101
46	0x50	80
47	0x19	25
48	0x81	-127
49	0x24	36
50	0x26	38
51	0xf4	-12
52	0xbd	-67
53	0x14	20
54	0xd9	-39
55	0xc0	-64
56	0xc8	-56
57	0xae	-82
58	0xa3	-93
59	0x7f	127
60	0x7a	122
61	0x49	73
62	0xcc	-52
63	0x97	-105
64	0x18	24
65	0x20	32
66	0xf1	-15
67	0xa9	-87
68	0x4b	75
69	0x81	-127
70	0xe8	-24
71	0x2b	43
72	0xfa	-6
73	0x84	-124
74	0x13	19
75	0xcf	-49
76	0x64	100
77	0x81	-127
78	0x1a	26
79	0x0e	14
80	0x28	40
81	0x01	1
82	0xd5	-43
83	0x8e	-114
84	0x7f	127
85	0xb9	-71
86	0xee	-18
87	0x73	115
88	0xb4	-76
89	0x34	52
90	0x07	7
91	0x58	88
92	0xfc	-4
93	0xd7	-41
94	0xd4	-44
95	0xd1	-47
96	0x2f	47
97	0xfe	-2
98	0xda	-38
99	0x81	-127
100	0x58	88
101	0xf9	-7
102	0xb7	-73
103	0x50	80
104	0xcc	-52
105	0xd3	-45
106	0xfb	-5
107	0x7f	127
108	0x1b	27
109	0x8d	-115
110	0x3b	59
111	0xdd	-35
112	0x0a	10
113	0xe3	-29
114	0x7f	127
115	0x03	3
116	0xc7	-57
117	0x18	24
118	0x0c	12
119	0x1e	30
120	0xd8	-40
121	0xb6	-74
122	0xbd	-67
123	0xe6	-26
124	0x59	89
125	0xce	-50
126	0x11	17
127	0x81	-127
128	0xe1	-31
129	0x2b	43
130	0xb6	-74
131	0x8a	-118
132	0x35	53
133	0x1a	26
134	0x06	6
135	0x34	52
136	0xa5	-91
137	0x81	-127
138	0x81	-127
139	0x47	71
140	0x22	34
141	0xed	-19
142	0x1b	27
143	0x62	98
144	0x1e	30
145	0x06	6
146	0xe9	-23
147	0x7f	127
148	0x82	-126
149	0x81	-127
150	0xd9	-39
151	0x7f	127
152	0x81	-127
153	0x81	-127
154	0x7f	127
155	0x0e	14
156	0x7f	127
157	0x81	-127
158	0x5c	92
159	0x84	-124
160	0xe5	-27
161	0x8a	-118
162	0x94	-108
163	0x8a	-118
164	0xe0	-32
165	0xdd	-35
166	0x2d	45
167	0xe7	-25
168	0xc6	-58
169	0xc0	-64
170	0xf9	-7
171	0xeb	-21
172	0x3c	60
173	0xe0	-32
174	0x7a	122
175	0x56	86
176	0xf8	-8
177	0xf7	-9
178	0x29	41
179	0xe2	-30
180	0x9e	-98
181	0xa4	-92
182	0x81	-127
183	0xfe	-2
184	0x71	113
185	0xa5	-91
186	0x88	-120
187	0xca	-54
188	0x15	21
189	0xa4	-92
190	0x64	100
191	0x8e	-114
192	0x81	-127
193	0xd7	-41
194	0x81	-127
195	0x0b	11
196	0x81	-127
197	0x36	54
198	0x5b	91
199	0x81	-127
200	0x07	7
201	0x4b	75
202	0x98	-104
203	0xfd	-3
204	0x96	-106
205	0x18	24
206	0x7f	127
207	0x7f	127
208	0x22	34
209	0x81	-127
210	0x36	54
211	0xd8	-40
212	0xa1	-95
213	0x06	6
214	0x8a	-118
215	0x0d	13
216	0xe0	-32
217	0x9b	-101
218	0xaf	-81
219	0x34	52
220	0x82	-126
221	0xf8	-8
222	0x7f	127
223	0xf3	-13

tfl.pseudo_qconst19 i1 [64, 1, 1, 32]
0	0xcb	-53
1	0xdd	-35
2	0x17	23
3	0xce	-50
4	0xd6	-42
5	0x1f	31
6	0x11	17
7	0xde	-34
8	0xeb	-21
9	0x8a	-118
10	0xae	-82
11	0x05	5
12	0x7f	127
13	0xa3	-93
14	0x57	87
15	0x2e	46
16	0xe4	-28
17	0xc5	-59
18	0x29	41
19	0xaa	-86
20	0x1a	26
21	0xcb	-53
22	0x61	97
23	0xd4	-44
24	0xd3	-45
25	0xc7	-57
26	0x6b	107
27	0x42	66
28	0x8d	-115
29	0xd6	-42
30	0xb1	-79
31	0x5d	93
32	0xff	-1
33	0x22	34
34	0xf5	-11
35	0x07	7
36	0xb9	-71
37	0xdf	-33
38	0xac	-84
39	0xd2	-46
40	0xf1	-15
41	0xc3	-61
42	0x11	17
43	0x30	48
44	0x42	66
45	0x0c	12
46	0xd2	-46
47	0x7f	127
48	0x1d	29
49	0xbb	-69
50	0x65	101
51	0x3a	58
52	0x5a	90
53	0x06	6
54	0x1d	29
55	0x78	120
56	0x08	8
57	0xed	-19
58	0x0f	15
59	0x09	9
60	0xf0	-16
61	0xc6	-58
62	0x1a	26
63	0xf6	-10
64	0x0f	15
65	0x47	71
66	0xc1	-63
67	0x58	88
68	0xdf	-33
69	0x24	36
70	0x1a	26
71	0x17	23
72	0x8b	-117
73	0x06	6
74	0xe6	-26
75	0xc5	-59
76	0xd8	-40
77	0xa9	-87
78	0xff	-1
79	0x9d	-99
80	0xb5	-75
81	0x34	52
82	0x10	16
83	0x81	-127
84	0x1b	27
85	0xdb	-37
86	0x46	70
87	0xc4	-60
88	0x9c	-100
89	0x8e	-114
90	0xef	-17
91	0x1c	28
92	0xaa	-86
93	0xff	-1
94	0xc9	-55
95	0x5b	91
96	0x45	69
97	0xa5	-91
98	0x3f	63
99	0xe6	-26
100	0xcc	-52
101	0x28	40
102	0xdd	-35
103	0xec	-20
104	0xe2	-30
105	0x17	23
106	0xdf	-33
107	0x0c	12
108	0x20	32
109	0xbf	-65
110	0x31	49
111	0x18	24
112	0xc3	-61
113	0xdf	-33
114	0x7f	127
115	0xf7	-9
116	0x28	40
117	0x1a	26
118	0x22	34
119	0x56	86
120	0xe8	-24
121	0x13	19
122	0x20	32
123	0xf6	-10
124	0x12	18
125	0xe1	-31
126	0xea	-22
127	0x3e	62
128	0x31	49
129	0xd3	-45
130	0x42	66
131	0x36	54
132	0xec	-20
133	0x11	17
134	0x81	-127
135	0x08	8
136	0x54	84
137	0xa9	-87
138	0xd5	-43
139	0x8d	-115
140	0x41	65
141	0xa0	-96
142	0xd8	-40
143	0x10	16
144	0xd2	-46
145	0xd5	-43
146	0x47	71
147	0x50	80
148	0x40	64
149	0x22	34
150	0xff	-1
151	0xba	-70
152	0x02	2
153	0x30	48
154	0x48	72
155	0xe3	-29
156	0xf9	-7
157	0x17	23
158	0x49	73
159	0x66	102
160	0x31	49
161	0xb4	-76
162	0x26	38
163	0x0f	15
164	0x54	84
165	0x12	18
166	0xe8	-24
167	0xfd	-3
168	0x01	1
169	0xe4	-28
170	0x0f	15
171	0x3e	62
172	0x87	-121
173	0xcd	-51
174	0xd3	-45
175	0x1e	30
176	0xcb	-53
177	0x70	112
178	0x81	-127
179	0x34	52
180	0xe2	-30
181	0xb7	-73
182	0xad	-83
183	0xde	-34
184	0x11	17
185	0xab	-85
186	0xd2	-46
187	0xe6	-26
188	0x2d	45
189	0xd3	-45
190	0x5c	92
191	0x08	8
192	0x0e	14
193	0x23	35
194	0xd0	-48
195	0x05	5
196	0x1b	27
197	0xc7	-57
198	0x2c	44
199	0x9f	-97
200	0x8b	-117
201	0xc6	-58
202	0xda	-38
203	0x0a	10
204	0x2f	47
205	0x0a	10
206	0xe4	-28
207	0x3b	59
208	0x0c	12
209	0x5d	93
210	0xfc	-4
211	0x02	2
212	0x81	-127
213	0xd0	-48
214	0x0d	13
215	0xf7	-9
216	0xcd	-51
217	0xc6	-58
218	0x08	8
219	0x5c	92
220	0xe9	-23
221	0xf2	-14
222	0xa9	-87
223	0xcf	-49
224	0xb8	-72
225	0xb9	-71
226	0x02	2
227	0x46	70
228	0x87	-121
229	0x32	50
230	0x11	17
231	0x0c	12
232	0x3f	63
233	0x4c	76
234	0xc5	-59
235	0x36	54
236	0x88	-120
237	0xbc	-68
238	0xfc	-4
239	0x59	89
240	0x44	68
241	0xd1	-47
242	0x61	97
243	0x1b	27
244	0xc8	-56
245	0xd5	-43
246	0x0f	15
247	0x7f	127
248	0xe0	-32
249	0xbe	-66
250	0x0c	12
251	0x41	65
252	0xa2	-94
253	0x6a	106
254	0xc1	-63
255	0x6a	106

tfl.pseudo_qconst21 i1 [1, 5, 1, 32]
0	0xa5	-91
1	0x81	-127
2	0xdc	-36
3	0x34	52
4	0xc8	-56
5	0x0a	10
6	0x7f	127
7	0x4d	77
8	0xcd	-51
9	0x7f	127
10	0x7d	125
11	0x06	6
12	0x1b	27
13	0x5a	90
14	0x3d	61
15	0x5e	94
16	0x81	-127
17	0x27	39
18	0xd3	-45
19	0x97	-105
20	0x81	-127
21	0xe2	-30
22	0x9c	-100
23	0x38	56
24	0xba	-70
25	0x47	71
26	0xab	-85
27	0x7f	127
28	0x84	-124
29	0xdb	-37
30	0xed	-19
31	0x94	-108
32	0x81	-127
33	0x28	40
34	0xf0	-16
35	0x49	73
36	0xac	-84
37	0xcd	-51
38	0x0b	11
39	0x06	6
40	0xce	-50
41	0xf1	-15
42	0x7f	127
43	0x16	22
44	0xa9	-87
45	0x29	41
46	0xc2	-62
47	0xaa	-86
48	0xe5	-27
49	0x74	116
50	0x89	-119
51	0x7f	127
52	0xee	-18
53	0x81	-127
54	0x03	3
55	0x08	8
56	0x22	34
57	0xb1	-79
58	0xac	-84
59	0x24	36
60	0x97	-105
61	0x6c	108
62	0xb2	-78
63	0x39	57
64	0xa8	-88
65	0xb9	-71
66	0xdf	-33
67	0x7f	127
68	0x1d	29
69	0x81	-127
70	0xd1	-47
71	0x7f	127
72	0xd5	-43
73	0x38	56
74	0x2a	42
75	0x39	57
76	0x89	-119
77	0x7f	127
78	0x18	24
79	0x81	-127
80	0x28	40
81	0x6c	108
82	0xb4	-76
83	0x8f	-113
84	0xb0	-80
85	0xb5	-75
86	0x81	-127
87	0xb7	-73
88	0x11	17
89	0xf6	-10
90	0xa3	-93
91	0x94	-108
92	0x78	120
93	0x7f	127
94	0xbe	-66
95	0xca	-54
96	0xcb	-53
97	0x7a	122
98	0x9a	-102
99	0xfc	-4
100	0x5f	95
101	0xd9	-39
102	0x18	24
103	0x64	100
104	0x7f	127
105	0xbb	-69
106	0x69	105
107	0x81	-127
108	0xa6	-90
109	0xcf	-49
110	0x81	-127
111	0x8d	-115
112	0xc1	-63
113	0x81	-127
114	0xcd	-51
115	0x24	36
116	0xf1	-15
117	0xe3	-29
118	0x16	22
119	0x81	-127
120	0xee	-18
121	0x81	-127
122	0x81	-127
123	0x52	82
124	0x7a	122
125	0x28	40
126	0x2c	44
127	0x81	-127
128	0x61	97
129	0x6d	109
130	0x81	-127
131	0xff	-1
132	0x7f	127
133	0xd9	-39
134	0x77	119
135	0x06	6
136	0x68	104
137	0x7f	127
138	0x3a	58
139	0x50	80
140	0x81	-127
141	0xf2	-14
142	0xc1	-63
143	0xaf	-81
144	0x42	66
145	0x1e	30
146	0x81	-127
147	0x68	104
148	0xc6	-58
149	0x89	-119
150	0xe7	-25
151	0xb1	-79
152	0x7f	127
153	0x86	-122
154	0x00	0
155	0xf0	-16
156	0x7f	127
157	0x6a	106
158	0x7f	127
159	0x4c	76

tfl.pseudo_qconst23 i1 [32, 5, 1, 40]
0	0xee	-18
1	0xd6	-42
2	0x9e	-98
3	0x44	68
4	0x14	20
5	0x3e	62
6	0x05	5
7	0x41	65
8	0xda	-38
9	0xff	-1
10	0x99	-103
11	0x3c	60
12	0xa5	-91
13	0x2c	44
14	0x1d	29
15	0x09	9
16	0xb5	-75
17	0xb5	-75
18	0x17	23
19	0x6b	107
20	0xc7	-57
21	0x56	86
22	0xc6	-58
23	0x1c	28
24	0xd2	-46
25	0xd2	-46
26	0xa7	-89
27	0xcd	-51
28	0xbe	-66
29	0x24	36
30	0x8b	-117
31	0xd4	-44
32	0xf6	-10
33	0x10	16
34	0x88	-120
35	0xc9	-55
36	0xe7	-25
37	0xdc	-36
38	0x98	-104
39	0x23	35
40	0xe7	-25
41	0xd4	-44
42	0xfb	-5
43	0x5a	90
44	0x0e	14
45	0x06	6
46	0x02	2
47	0x03	3
48	0xdd	-35
49	0xc9	-55
50	0x91	-111
51	0xdb	-37
52	0x00	0
53	0x9b	-101
54	0x23	35
55	0x92	-110
56	0xa8	-88
57	0x8f	-113
58	0xd7	-41
59	0x17	23
60	0x01	1
61	0x52	82
62	0xdc	-36
63	0xe4	-28
64	0xc0	-64
65	0x23	35
66	0x89	-119
67	0xd9	-39
68	0xb6	-74
69	0x2f	47
70	0xc2	-62
71	0x25	37
72	0xda	-38
73	0xce	-50
74	0x97	-105
75	0xe7	-25
76	0xc3	-61
77	0x17	23
78	0x81	-127
79	0xdb	-37
80	0xd5	-43
81	0xd4	-44
82	0xa3	-93
83	0x37	55
84	0xae	-82
85	0x7c	124
86	0x0c	12
87	0x35	53
88	0xd6	-42
89	0x62	98
90	0x11	17
91	0x19	25
92	0xad	-83
93	0x23	35
94	0x90	-112
95	0xfe	-2
96	0xeb	-21
97	0xe0	-32
98	0xd5	-43
99	0x5c	92
100	0xf2	-14
101	0x3c	60
102	0xa8	-88
103	0xe2	-30
104	0x18	24
105	0x2f	47
106	0xdd	-35
107	0x04	4
108	0xb5	-75
109	0x04	4
110	0x9a	-102
111	0x0c	12
112	0xcc	-52
113	0x37	55
114	0xc6	-58
115	0x14	20
116	0xbe	-66
117	0x11	17
118	0x8a	-118
119	0xc0	-64
120	0x21	33
121	0xe5	-27
122	0xd2	-46
123	0xf8	-8
124	0x2c	44
125	0x26	38
126	0xea	-22
127	0x28	40
128	0xeb	-21
129	0x06	6
130	0xcc	-52
131	0xdf	-33
132	0xf7	-9
133	0x18	24
134	0xf2	-14
135	0x02	2
136	0xac	-84
137	0xd7	-41
138	0xa0	-96
139	0x29	41
140	0xeb	-21
141	0x6c	108
142	0xc1	-63
143	0x59	89
144	0xfb	-5
145	0xfc	-4
146	0xf6	-10
147	0x0d	13
148	0xcc	-52
149	0x44	68
150	0xb9	-71
151	0x4c	76
152	0x86	-122
153	0x11	17
154	0xe0	-32
155	0xb6	-74
156	0x9b	-101
157	0xeb	-21
158	0xe7	-25
159	0xe1	-31
160	0xc3	-61
161	0xab	-85
162	0xb6	-74
163	0x3a	58
164	0x16	22
165	0x25	37
166	0x8c	-116
167	0x0f	15
168	0xac	-84
169	0x39	57
170	0xa6	-90
171	0xbb	-69
172	0xb0	-80
173	0xa7	-89
174	0x92	-110
175	0xb2	-78
176	0xb8	-72
177	0x1f	31
178	0xc4	-60
179	0xd4	-44
180	0xd5	-43
181	0x17	23
182	0xf8	-8
183	0x40	64
184	0xe6	-26
185	0xcf	-49
186	0xab	-85
187	0x17	23
188	0xca	-54
189	0x41	65
190	0xca	-54
191	0x29	41
192	0xe1	-31
193	0xc5	-59
194	0xca	-54
195	0xb9	-71
196	0xe0	-32
197	0x59	89
198	0xfc	-4
199	0x27	39
200	0x1c	28
201	0x9a	-102
202	0xe4	-28
203	0x14	20
204	0xc4	-60
205	0x24	36
206	0x44	68
207	0xf6	-10
208	0x56	86
209	0x27	39
210	0x27	39
211	0x12	18
212	0xea	-22
213	0x00	0
214	0x2d	45
215	0xf1	-15
216	0x0c	12
217	0xc5	-59
218	0x01	1
219	0xa7	-89
220	0xe8	-24
221	0xfb	-5
222	0x24	36
223	0xff	-1
224	0x8d	-115
225	0x9a	-102
226	0x02	2
227	0xd8	-40
228	0xfd	-3
229	0xda	-38
230	0x1a	26
231	0xf8	-8
232	0xeb	-21
233	0xe5	-27
234	0x1c	28
235	0xce	-50
236	0xe3	-29
237	0xdc	-36
238	0xd6	-42
239	0xe8	-24
240	0x22	34
241	0xd2	-46
242	0x2a	42
243	0xe7	-25
244	0xb3	-77
245	0x22	34
246	0x4d	77
247	0xf9	-7
248	0x4c	76
249	0x3b	59
250	0x2c	44
251	0x07	7
252	0x05	5
253	0x28	40
254	0x49	73
255	0x51	81

tfl.pseudo_qconst24 i1 [1, 22, 1, 64] scale=0.06448918 zero_point=-128
0	0x80	0.0
1	0x80	0.0
2	0x80	0.0
3	0x80	0.0
4	0x80	0.0
5	0x80	0.0
6	0x80	0.0
7	0x80	0.0
8	0x80	0.0
9	0x80	0.0
10	0x80	0.0
11	0x80	0.0
12	0x80	0.0
13	0x80	0.0
14	0x80	0.0
15	0x80	0.0
16	0x80	0.0
17	0x80	0.0
18	0x80	0.0
19	0x80	0.0
20	0x80	0.0
21	0x80	0.0
22	0x80	0.0
23	0x80	0.0
24	0x80	0.0
25	0x80	0.0
26	0x80	0.0
27	0x80	0.0
28	0x80	0.0
29	0x80	0.0
30	0x80	0.0
31	0x80	0.0
32	0x80	0.0
33	0x80	0.0
34	0x80	0.0
35	0x80	0.0
36	0x80	0.0
37	0x80	0.0
38	0x80	0.0
39	0x80	0.0
40	0x80	0.0
41	0x80	0.0
42	0x80	0.0
43	0x80	0.0
44	0x80	0.0
45	0x80	0.0
46	0x80	0.0
47	0x80	0.0
48	0x80	0.0
49	0x80	0.0
50	0x80	0.0
51	0x80	0.0
52	0x80	0.0
53	0x80	0.0
54	0x80	0.0
55	0x80	0.0
56	0x80	0.0
57	0x80	0.0
58	0x80	0.0
59	0x80	0.0
60	0x80	0.0
61	0x80	0.0
62	0x80	0.0
63	0x80	0.0
64	0x80	0.0
65	0x80	0.0
66	0x80	0.0
67	0x80	0.0
68	0x80	0.0
69	0x80	0.0
70	0x80	0.0
71	0x80	0.0
72	0x80	0.0
73	0x80	0.0
74	0x80	0.0
75	0x80	0.0
76	0x80	0.0
77	0x80	0.0
78	0x80	0.0
79	0x80	0.0
80	0x80	0.0
81	0x80	0.0
82	0x80	0.0
83	0x80	0.0
84	0x80	0.0
85	0x80	0.0
86	0x80	0.0
87	0x80	0.0
88	0x80	0.0
89	0x80	0.0
90	0x80	0.0
91	0x80	0.0
92	0x80	0.0
93	0x80	0.0
94	0x80	0.0
95	0x80	0.0
96	0x80	0.0
97	0x80	0.0
98	0x80	0.0
99	0x80	0.0
100	0x80	0.0
101	0x80	0.0
102	0x80	0.0
103	0x80	0.0
104	0x80	0.0
105	0x80	0.0
106	0x80	0.0
107	0x80	0.0
108	0x80	0.0
109	0x80	0.0
110	0x80	0.0
111	0x80	0.0
112	0x80	0.0
113	0x80	0.0
114	0x80	0.0
115	0x80	0.0
116	0x80	0.0
117	0x80	0.0
118	0x80	0.0
119	0x80	0.0
120	0x80	0.0
121	0x80	0.0
122	0x80	0.0
123	0x80	0.0
124	0x80	0.0
125	0x80	0.0
126	0x80	0.0
127	0x80	0.0
128	0x80	0.0
129	0x80	0.0
130	0x80	0.0
131	0x80	0.0
132	0x80	0.0
133	0x80	0.0
134	0x80	0.0
135	0x80	0.0
136	0x80	0.0
137	0x80	0.0
138	0x80	0.0
139	0x80	0.0
140	0x80	0.0
141	0x80	0.0
142	0x80	0.0
143	0x80	0.0
144	0x80	0.0
145	0x80	0.0
146	0x80	0.0
147	0x80	0.0
148	0x80	0.0
149	0x80	0.0
150	0x80	0.0
151	0x80	0.0
152	0x80	0.0
153	0x80	0.0
154	0x80	0.0
155	0x80	0.0
156	0x80	0.0
157	0x80	0.0
158	0x80	0.0
159	0x80	0.0
160	0x80	0.0
161	0x80	0.0
162	0x80	0.0
163	0x80	0.0
164	0x80	0.0
165	0x80	0.0
166	0x80	0.0
167	0x80	0.0
168	0x80	0.0
169	0x80	0.0
170	0x80	0.0
171	0x80	0.0
172	0x80	0.0
173	0x80	0.0
174	0x80	0.0
175	0x80	0.0
176	0x80	0.0
177	0x80	0.0
178	0x80	0.0
179	0x80	0.0
180	0x80	0.0
181	0x80	0.0
182	0x80	0.0
183	0x80	0.0
184	0x80	0.0
185	0x80	0.0
186	0x80	0.0
187	0x80	0.0
188	0x80	0.0
189	0x80	0.0
190	0x80	0.0
191	0x80	0.0
192	0x80	0.0
193	0x80	0.0
194	0x80	0.0
195	0x80	0.0
196	0x80	0.0
197	0x80	0.0
198	0x80	0.0
199	0x80	0.0
200	0x80	0.0
201	0x80	0.0
202	0x80	0.0
203	0x80	0.0
204	0x80	0.0
205	0x80	0.0
206	0x80	0.0
207	0x80	0.0
208	0x80	0.0
209	0x80	0.0
210	0x80	0.0
211	0x80	0.0
212	0x80	0.0
213	0x80	0.0
214	0x80	0.0
215	0x80	0.0
216	0x80	0.0
217	0x80	0.0
218	0x80	0.0
219	0x80	0.0
220	0x80	0.0
221	0x80	0.0
222	0x80	0.0
223	0x80	0.0
224	0x80	0.0
225	0x80	0.0
226	0x80	0.0
227	0x80	0.0
228	0x80	0.0
229	0x80	0.0
230	0x80	0.0
231	0x80	0.0
232	0x80	0.0
233	0x80	0.0
234	0x80	0.0
235	0x80	0.0
236	0x80	0.0
237	0x80	0.0
238	0x80	0.0
239	0x80	0.0
240	0x80	0.0
241	0x80	0.0
242	0x80	0.0
243	0x80	0.0
244	0x80	0.0
245	0x80	0.0
246	0x80	0.0
247	0x80	0.0
248	0x80	0.0
249	0x80	0.0
250	0x80	0.0
251	0x80	0.0
252	0x80	0.0
253	0x80	0.0
254	0x80	0.0
255	0x80	0.0

tfl.pseudo_qconst25 i1 [1, 16, 1, 64] scale=0.047786497 zero_point=-128
0	0x80	0.0
1	0x80	0.0
2	0x80	0.0
3	0x80	0.0
4	0x80	0.0
5	0x80	0.0
6	0x80	0.0
7	0x80	0.0
8	0x80	0.0
9	0x80	0.0
10	0x80	0.0
11	0x80	0.0
12	0x80	0.0
13	0x80	0.0
14	0x80	0.0
15	0x80	0.0
16	0x80	0.0
17	0x80	0.0
18	0x80	0.0
19	0x80	0.0
20	0x80	0.0
21	0x80	0.0
22	0x80	0.0
23	0x80	0.0
24	0x80	0.0
25	0x80	0.0
26	0x80	0.0
27	0x80	0.0
28	0x80	0.0
29	0x80	0.0
30	0x80	0.0
31	0x80	0.0
32	0x80	0.0
33	0x80	0.0
34	0x80	0.0
35	0x80	0.0
36	0x80	0.0
37	0x80	0.0
38	0x80	0.0
39	0x80	0.0
40	0x80	0.0
41	0x80	0.0
42	0x80	0.0
43	0x80	0.0
44	0x80	0.0
45	0x80	0.0
46	0x80	0.0
47	0x80	0.0
48	0x80	0.0
49	0x80	0.0
50	0x80	0.0
51	0x80	0.0
52	0x80	0.0
53	0x80	0.0
54	0x80	0.0
55	0x80	0.0
56	0x80	0.0
57	0x80	0.0
58	0x80	0.0
59	0x80	0.0
60	0x80	0.0
61	0x80	0.0
62	0x80	0.0
63	0x80	0.0
64	0x80	0.0
65	0x80	0.0
66	0x80	0.0
67	0x80	0.0
68	0x80	0.0
69	0x80	0.0
70	0x80	0.0
71	0x80	0.0
72	0x80	0.0
73	0x80	0.0
74	0x80	0.0
75	0x80	0.0
76	0x80	0.0
77	0x80	0.0
78	0x80	0.0
79	0x80	0.0
80	0x80	0.0
81	0x80	0.0
82	0x80	0.0
83	0x80	0.0
84	0x80	0.0
85	0x80	0.0
86	0x80	0.0
87	0x80	0.0
88	0x80	0.0
89	0x80	0.0
90	0x80	0.0
91	0x80	0.0
92	0x80	0.0
93	0x80	0.0
94	0x80	0.0
95	0x80	0.0
96	0x80	0.0
97	0x80	0.0
98	0x80	0.0
99	0x80	0.0
100	0x80	0.0
101	0x80	0.0
102	0x80	0.0
103	0x80	0.0
104	0x80	0.0
105	0x80	0.0
106	0x80	0.0
107	0x80	0.0
108	0x80	0.0
109	0x80	0.0
110	0x80	0.0
111	0x80	0.0
112	0x80	0.0
113	0x80	0.0
114	0x80	0.0
115	0x80	0.0
116	0x80	0.0
117	0x80	0.0
118	0x80	0.0
119	0x80	0.0
120	0x80	0.0
121	0x80	0.0
122	0x80	0.0
123	0x80	0.0
124	0x80	0.0
125	0x80	0.0
126	0x80	0.0
127	0x80	0.0
128	0x80	0.0
129	0x80	0.0
130	0x80	0.0
131	0x80	0.0
132	0x80	0.0
133	0x80	0.0
134	0x80	0.0
135	0x80	0.0
136	0x80	0.0
137	0x80	0.0
138	0x80	0.0
139	0x80	0.0
140	0x80	0.0
141	0x80	0.0
142	0x80	0.0
143	0x80	0.0
144	0x80	0.0
145	0x80	0.0
146	0x80	0.0
147	0x80	0.0
148	0x80	0.0
149	0x80	0.0
150	0x80	0.0
151	0x80	0.0
152	0x80	0.0
153	0x80	0.0
154	0x80	0.0
155	0x80	0.0
156	0x80	0.0
157	0x80	0.0
158	0x80	0.0
159	0x80	0.0
160	0x80	0.0
161	0x80	0.0
162	0x80	0.0
163	0x80	0.0
164	0x80	0.0
165	0x80	0.0
166	0x80	0.0
167	0x80	0.0
168	0x80	0.0
169	0x80	0.0
170	0x80	0.0
171	0x80	0.0
172	0x80	0.0
173	0x80	0.0
174	0x80	0.0
175	0x80	0.0
176	0x80	0.0
177	0x80	0.0
178	0x80	0.0
179	0x80	0.0
180	0x80	0.0
181	0x80	0.0
182	0x80	0.0
183	0x80	0.0
184	0x80	0.0
185	0x80	0.0
186	0x80	0.0
187	0x80	0.0
188	0x80	0.0
189	0x80	0.0
190	0x80	0.0
191	0x80	0.0
192	0x80	0.0
193	0x80	0.0
194	0x80	0.0
195	0x80	0.0
196	0x80	0.0
197	0x80	0.0
198	0x80	0.0
199	0x80	0.0
200	0x80	0.0
201	0x80	0.0
202	0x80	0.0
203	0x80	0.0
204	0x80	0.0
205	0x80	0.0
206	0x80	0.0
207	0x80	0.0
208	0x80	0.0
209	0x80	0.0
210	0x80	0.0
211	0x80	0.0
212	0x80	0.0
213	0x80	0.0
214	0x80	0.0
215	0x80	0.0
216	0x80	0.0
217	0x80	0.0
218	0x80	0.0
219	0x80	0.0
220	0x80	0.0
221	0x80	0.0
222	0x80	0.0
223	0x80	0.0
224	0x80	0.0
225	0x80	0.0
226	0x80	0.0
227	0x80	0.0
228	0x80	0.0
229	0x80	0.0
230	0x80	0.0
231	0x80	0.0
232	0x80	0.0
233	0x80	0.0
234	0x80	0.0
235	0x80	0.0
236	0x80	0.0
237	0x80	0.0
238	0x80	0.0
239	0x80	0.0
240	0x80	0.0
241	0x80	0.0
242	0x80	0.0
243	0x80	0.0
244	0x80	0.0
245	0x80	0.0
246	0x80	0.0
247	0x80	0.0
248	0x80	0.0
249	0x80	0.0
250	0x80	0.0
251	0x80	0.0
252	0x80	0.0
253	0x80	0.0
254	0x80	0.0
255	0x80	0.0

tfl.pseudo_qconst26 i1 [1, 2, 1, 40] scale=0.101960786 zero_point=-128
0	0x80	0.0
1	0x80	0.0
2	0x80	0.0
3	0x80	0.0
4	0x80	0.0
5	0x80	0.0
6	0x80	0.0
7	0x80	0.0
8	0x80	0.0
9	0x80	0.0
10	0x80	0.0
11	0x80	0.0
12	0x80	0.0
13	0x80	0.0
14	0x80	0.0
15	0x80	0.0
16	0x80	0.0
17	0x80	0.0
18	0x80	0.0
19	0x80	0.0
20	0x80	0.0
21	0x80	0.0
22	0x80	0.0
23	0x80	0.0
24	0x80	0.0
25	0x80	0.0
26	0x80	0.0
27	0x80	0.0
28	0x80	0.0
29	0x80	0.0
30	0x80	0.0
31	0x80	0.0
32	0x80	0.0
33	0x80	0.0
34	0x80	0.0
35	0x80	0.0
36	0x80	0.0
37	0x80	0.0
38	0x80	0.0
39	0x80	0.0
40	0x80	0.0
41	0x80	0.0
42	0x80	0.0
43	0x80	0.0
44	0x80	0.0
45	0x80	0.0
46	0x80	0.0
47	0x80	0.0
48	0x80	0.0
49	0x80	0.0
50	0x80	0.0
51	0x80	0.0
52	0x80	0.0
53	0x80	0.0
54	0x80	0.0
55	0x80	0.0
56	0x80	0.0
57	0x80	0.0
58	0x80	0.0
59	0x80	0.0
60	0x80	0.0
61	0x80	0.0
62	0x80	0.0
63	0x80	0.0
64	0x80	0.0
65	0x80	0.0
66	0x80	0.0
67	0x80	0.0
68	0x80	0.0
69	0x80	0.0
70	0x80	0.0
71	0x80	0.0
72	0x80	0.0
73	0x80	0.0
74	0x80	0.0
75	0x80	0.0
76	0x80	0.0
77	0x80	0.0
78	0x80	0.0
79	0x80	0.0

tfl.pseudo_qconst27 i1 [1, 4, 1, 32] scale=1.0540574 zero_point=-128
0	0x80	0.0
1	0x80	0.0
2	0x80	0.0
3	0x80	0.0
4	0x80	0.0
5	0x80	0.0
6	0x80	0.0
7	0x80	0.0
8	0x80	0.0
9	0x80	0.0
10	0x80	0.0
11	0x80	0.0
12	0x80	0.0
13	0x80	0.0
14	0x80	0.0
15	0x80	0.0
16	0x80	0.0
17	0x80	0.0
18	0x80	0.0
19	0x80	0.0
20	0x80	0.0
21	0x80	0.0
22	0x80	0.0
23	0x80	0.0
24	0x80	0.0
25	0x80	0.0
26	0x80	0.0
27	0x80	0.0
28	0x80	0.0
29	0x80	0.0
30	0x80	0.0
31	0x80	0.0
32	0x80	0.0
33	0x80	0.0
34	0x80	0.0
35	0x80	0.0
36	0x80	0.0
37	0x80	0.0
38	0x80	0.0
39	0x80	0.0
40	0x80	0.0
41	0x80	0.0
42	0x80	0.0
43	0x80	0.0
44	0x80	0.0
45	0x80	0.0
46	0x80	0.0
47	0x80	0.0
48	0x80	0.0
49	0x80	0.0
50	0x80	0.0
51	0x80	0.0
52	0x80	0.0
53	0x80	0.0
54	0x80	0.0
55	0x80	0.0
56	0x80	0.0
57	0x80	0.0
58	0x80	0.0
59	0x80	0.0
60	0x80	0.0
61	0x80	0.0
62	0x80	0.0
63	0x80	0.0
64	0x80	0.0
65	0x80	0.0
66	0x80	0.0
67	0x80	0.0
68	0x80	0.0
69	0x80	0.0
70	0x80	0.0
71	0x80	0.0
72	0x80	0.0
73	0x80	0.0
74	0x80	0.0
75	0x80	0.0
76	0x80	0.0
77	0x80	0.0
78	0x80	0.0
79	0x80	0.0
80	0x80	0.0
81	0x80	0.0
82	0x80	0.0
83	0x80	0.0
84	0x80	0.0
85	0x80	0.0
86	0x80	0.0
87	0x80	0.0
88	0x80	0.0
89	0x80	0.0
90	0x80	0.0
91	0x80	0.0
92	0x80	0.0
93	0x80	0.0
94	0x80	0.0
95	0x80	0.0
96	0x80	0.0
97	0x80	0.0
98	0x80	0.0
99	0x80	0.0
100	0x80	0.0
101	0x80	0.0
102	0x80	0.0
103	0x80	0.0
104	0x80	0.0
105	0x80	0.0
106	0x80	0.0
107	0x80	0.0
108	0x80	0.0
109	0x80	0.0
110	0x80	0.0
111	0x80	0.0
112	0x80	0.0
113	0x80	0.0
114	0x80	0.0
115	0x80	0.0
116	0x80	0.0
117	0x80	0.0
118	0x80	0.0
119	0x80	0.0
120	0x80	0.0
121	0x80	0.0
122	0x80	0.0
123	0x80	0.0
124	0x80	0.0
125	0x80	0.0
126	0x80	0.0
127	0x80	0.0

tfl.pseudo_qconst28 i1 [1, 10, 1, 64] scale=0.07093691 zero_point=-128
0	0x80	0.0
1	0x80	0.0
2	0x80	0.0
3	0x80	0.0
4	0x80	0.0
5	0x80	0.0
6	0x80	0.0
7	0x80	0.0
8	0x80	0.0
9	0x80	0.0
10	0x80	0.0
11	0x80	0.0
12	0x80	0.0
13	0x80	0.0
14	0x80	0.0
15	0x80	0.0
16	0x80	0.0
17	0x80	0.0
18	0x80	0.0
19	0x80	0.0
20	0x80	0.0
21	0x80	0.0
22	0x80	0.0
23	0x80	0.0
24	0x80	0.0
25	0x80	0.0
26	0x80	0.0
27	0x80	0.0
28	0x80	0.0
29	0x80	0.0
30	0x80	0.0
31	0x80	0.0
32	0x80	0.0
33	0x80	0.0
34	0x80	0.0
35	0x80	0.0
36	0x80	0.0
37	0x80	0.0
38	0x80	0.0
39	0x80	0.0
40	0x80	0.0
41	0x80	0.0
42	0x80	0.0
43	0x80	0.0
44	0x80	0.0
45	0x80	0.0
46	0x80	0.0
47	0x80	0.0
48	0x80	0.0
49	0x80	0.0
50	0x80	0.0
51	0x80	0.0
52	0x80	0.0
53	0x80	0.0
54	0x80	0.0
55	0x80	0.0
56	0x80	0.0
57	0x80	0.0
58	0x80	0.0
59	0x80	0.0
60	0x80	0.0
61	0x80	0.0
62	0x80	0.0
63	0x80	0.0
64	0x80	0.0
65	0x80	0.0
66	0x80	0.0
67	0x80	0.0
68	0x80	0.0
69	0x80	0.0
70	0x80	0.0
71	0x80	0.0
72	0x80	0.0
73	0x80	0.0
74	0x80	0.0
75	0x80	0.0
76	0x80	0.0
77	0x80	0.0
78	0x80	0.0
79	0x80	0.0
80	0x80	0.0
81	0x80	0.0
82	0x80	0.0
83	0x80	0.0
84	0x80	0.0
85	0x80	0.0
86	0x80	0.0
87	0x80	0.0
88	0x80	0.0
89	0x80	0.0
90	0x80	0.0
91	0x80	0.0
92	0x80	0.0
93	0x80	0.0
94	0x80	0.0
95	0x80	0.0
96	0x80	0.0
97	0x80	0.0
98	0x80	0.0
99	0x80	0.0
100	0x80	0.0
101	0x80	0.0
102	0x80	0.0
103	0x80	0.0
104	0x80	0.0
105	0x80	0.0
106	0x80	0.0
107	0x80	0.0
108	0x80	0.0
109	0x80	0.0
110	0x80	0.0
111	0x80	0.0
112	0x80	0.0
113	0x80	0.0
114	0x80	0.0
115	0x80	0.0
116	0x80	0.0
117	0x80	0.0
118	0x80	0.0
119	0x80	0.0
120	0x80	0.0
121	0x80	0.0
122	0x80	0.0
123	0x80	0.0
124	0x80	0.0
125	0x80	0.0
126	0x80	0.0
127	0x80	0.0
128	0x80	0.0
129	0x80	0.0
130	0x80	0.0
131	0x80	0.0
132	0x80	0.0
133	0x80	0.0
134	0x80	0.0
135	0x80	0.0
136	0x80	0.0
137	0x80	0.0
138	0x80	0.0
139	0x80	0.0
140	0x80	0.0
141	0x80	0.0
142	0x80	0.0
143	0x80	0.0
144	0x80	0.0
145	0x80	0.0
146	0x80	0.0
147	0x80	0.0
148	0x80	0.0
149	0x80	0.0
150	0x80	0.0
151	0x80	0.0
152	0x80	0.0
153	0x80	0.0
154	0x80	0.0
155	0x80	0.0
156	0x80	0.0
157	0x80	0.0
158	0x80	0.0
159	0x80	0.0
160	0x80	0.0
161	0x80	0.0
162	0x80	0.0
163	0x80	0.0
164	0x80	0.0
165	0x80	0.0
166	0x80	0.0
167	0x80	0.0
168	0x80	0.0
169	0x80	0.0
170	0x80	0.0
171	0x80	0.0
172	0x80	0.0
173	0x80	0.0
174	0x80	0.0
175	0x80	0.0
176	0x80	0.0
177	0x80	0.0
178	0x80	0.0
179	0x80	0.0
180	0x80	0.0
181	0x80	0.0
182	0x80	0.0
183	0x80	0.0
184	0x80	0.0
185	0x80	0.0
186	0x80	0.0
187	0x80	0.0
188	0x80	0.0
189	0x80	0.0
190	0x80	0.0
191	0x80	0.0
192	0x80	0.0
193	0x80	0.0
194	0x80	0.0
195	0x80	0.0
196	0x80	0.0
197	0x80	0.0
198	0x80	0.0
199	0x80	0.0
200	0x80	0.0
201	0x80	0.0
202	0x80	0.0
203	0x80	0.0
204	0x80	0.0
205	0x80	0.0
206	0x80	0.0
207	0x80	0.0
208	0x80	0.0
209	0x80	0.0
210	0x80	0.0
211	0x80	0.0
212	0x80	0.0
213	0x80	0.0
214	0x80	0.0
215	0x80	0.0
216	0x80	0.0
217	0x80	0.0
218	0x80	0.0
219	0x80	0.0
220	0x80	0.0
221	0x80	0.0
222	0x80	0.0
223	0x80	0.0
224	0x80	0.0
225	0x80	0.0
226	0x80	0.0
227	0x80	0.0
228	0x80	0.0
229	0x80	0.0
230	0x80	0.0
231	0x80	0.0
232	0x80	0.0
233	0x80	0.0
234	0x80	0.0
235	0x80	0.0
236	0x80	0.0
237	0x80	0.0
238	0x80	0.0
239	0x80	0.0
240	0x80	0.0
241	0x80	0.0
242	0x80	0.0
243	0x80	0.0
244	0x80	0.0
245	0x80	0.0
246	0x80	0.0
247	0x80	0.0
248	0x80	0.0
249	0x80	0.0
250	0x80	0.0
251	0x80	0.0
252	0x80	0.0
253	0x80	0.0
254	0x80	0.0
255	0x80	0.0
