uta.tflite (tflite, 60872 bytes, 18 tensors)

tfl.pseudo_qconst1 i1 [1, 1088] scale=0.0010506888 zero_point=0
-0.050433062 -0.00840551 0.019963088 0.047280997 -0.028368598 -0.083004415 0.021013776 -0.038875487
0.048331685 0.018912397 0.0745989 -0.039926175 -0.014709643 0.014709643 0.0 -0.0745989
0.03362204 -0.005253444 -0.036774106 0.061990637 0.05253444 0.02626722 0.010506888 -0.0745989
-0.049382374 0.004202755 -0.01681102 0.010506888 0.057787884 0.049382374 -0.065142706 0.071446836
-0.022064464 -0.022064464 0.0021013776 0.065142706 -0.035723418 -0.032571353 0.058838572 -0.00840551
0.011557577 0.036774106 -0.07564959 0.00840551 -0.06409202 0.00840551 -0.08195373 -0.021013776
-0.045179617 -0.054635815 -0.055686507 -0.050433062 -0.055686507 -0.06724408 -0.015760332 0.0073548215
-0.08090304 -0.07354821 -0.06409202 -0.072497524 -0.037824795 -0.009456199 0.047280997 0.048331685
-0.072497524 -0.056737196 0.017861709 -0.065142706 -0.07985235 -0.015760332 -0.066193394 -0.022064464
-0.021013776 -0.045179617 0.0073548215 -0.023115154 -0.057787884 0.027317908 -0.04412893 0.005253444
-0.031520665 -0.0126082655 -0.010506888 0.053585127 -0.0073548215 -0.017861709 -0.0063041328 -0.065142706
0.038875487 -0.017861709 0.010506888 -0.032571353 -0.04307824 -0.072497524 0.024165843 -0.05148375
0.037824795 -0.06829477 -0.08510579 0.04307824 0.054635815 -0.02626722 -0.048331685 -0.04412893
-0.056737196 0.005253444 -0.08090304 0.049382374 0.045179617 -0.039926175 0.005253444 0.029419286
0.05988926 0.029419286 0.032571353 -0.03467273 0.01681102 0.061990637 0.023115154 -0.08090304
-0.08510579 0.0021013776 -0.031520665 0.03362204 -0.022064464 0.027317908 -0.05148375 -0.050433062
0.047280997 0.0745989 0.050433062 0.055686507 0.040976863 -0.0840551 0.0 -0.032571353
-0.025216531 -0.036774106 0.06093995 0.0021013776 -0.07354821 0.056737196 0.055686507 -0.0073548215
0.0063041328 -0.01681102 -0.040976863 0.048331685 -0.018912397 0.06304133 0.049382374 0.04202755
0.06093995 -0.010506888 0.057787884 0.021013776 0.0 0.01681102 -0.02626722 -0.0031520664
0.061990637 0.038875487 0.035723418 -0.057787884 0.0073548215 0.004202755 0.0021013776 0.056737196
-0.040976863 0.004202755 0.010506888 -0.030469975 -0.018912397 0.07354821 -0.053585127 -0.053585127
0.050433062 -0.009456199 0.037824795 0.04202755 -0.04307824 0.0063041328 0.048331685 -0.072497524
-0.047280997 0.015760332 0.040976863 -0.01681102 -0.061990637 0.03362204 -0.05148375 0.009456199
-0.055686507 0.05988926 0.057787884 0.004202755 -0.00840551 -0.019963088 -0.015760332 0.010506888
-0.013658954 -0.022064464 -0.03362204 -0.019963088 -0.029419286 -0.04623031 0.030469975 -0.029419286
-0.0073548215 -0.047280997 -0.07775097 -0.03467273 -0.04623031 0.04412893 -0.057787884 -0.0126082655
0.010506888 -0.0063041328 -0.031520665 -0.057787884 0.024165843 0.056737196 0.025216531 0.028368598
-0.071446836 0.0063041328 0.03362204 -0.039926175 0.022064464 -0.0063041328 -0.056737196 0.06829477
-0.0021013776 0.066193394 -0.05148375 -0.004202755 0.01681102 -0.0010506888 -0.039926175 -0.035723418
0.037824795 0.023115154 -0.053585127 -0.023115154 -0.0126082655 -0.035723418 -0.015760332 0.05988926
-0.029419286 -0.024165843 -0.0073548215 -0.06304133 -0.05253444 -0.05253444 0.013658954 -0.07985235
00000000: d0f8 132d e5b1 14db 2e12 47da f20e 00b9
00000010: 20fb dd3b 3219 0ab9 d104 f00a 372f c244
00000020: ebeb 023e dee1 38f8 0b23 b808 c308 b2ec
00000030: d5cc cbd0 cbc0 f107 b3ba c3bb dcf7 2d2e
00000040: bbca 11c2 b4f1 c1eb ecd5 07ea c91a d605
00000050: e2f4 f633 f9ef fac2 25ef 0ae1 d7bb 17cf
00000060: 24bf af29 34e7 d2d6 ca05 b32f 2bda 051c
00000070: 391c 1fdf 103b 16b3 af02 e220 eb1a cfd0
00000080: 2d47 3035 27b0 00e1 e8dd 3a02 ba36 35f9
00000090: 06f0 d92e ee3c 2f28 3af6 3714 0010 e7fd
000000a0: 3b25 22c9 0704 0236 d904 0ae3 ee46 cdcd
000000b0: 30f7 2428 d706 2ebb d30f 27f0 c520 cf09
000000c0: cb39 3704 f8ed f10a f3eb e0ed e4d4 1de4
000000d0: f9d3 b6df d42a c9f4 0afa e2c9 1736 181b
000000e0: bc06 20da 15fa ca41 fe3f cffc 10ff dade
000000f0: 2416 cdea f4de f139 e4e9 f9c4 cece 0db4

tfl.pseudo_qconst3 i1 [64, 1, 1, 64]
-127 -33 -57 -12 -109 -111 73 -114
-13 -73 -64 -68 -13 8 99 -34
26 52 -28 -33 25 27 -54 107
21 -80 10 -90 74 77 97 81
-76 -3 81 52 61 -66 70 114
-20 79 -53 -33 37 32 24 -33
18 75 41 -42 104 82 -91 54
-104 41 -20 38 40 -72 -77 27
107 46 34 -10 7 -50 -47 32
42 -122 8 -37 -36 57 -16 -127
-109 -87 -107 -42 3 -22 100 -91
-27 -36 81 -1 85 122 -44 54
4 28 92 33 -71 -50 -13 -59
104 19 103 -113 6 -16 25 -112
19 9 30 9 42 -103 83 -46
64 46 -106 -99 -91 50 -45 -96
46 -88 -116 -106 83 40 101 -126
-106 25 30 89 -89 -109 -33 -9
60 59 -94 63 20 44 -49 -85
88 -16 69 -21 82 91 -79 7
-127 45 119 11 -112 15 38 -62
-7 -106 -17 -54 -6 -27 16 121
107 40 -40 -44 43 -41 -22 -99
-61 -72 -39 0 90 -13 17 -117
-11 100 12 -55 -58 -22 89 -48
66 38 -51 108 -97 -70 57 5
11 -30 -72 -66 41 42 -51 -66
93 60 39 5 -35 15 -65 35
95 -13 60 -63 -10 -3 -92 31
-41 53 -4 96 67 90 76 89
-20 27 -107 -127 89 95 -49 -79
-88 -5 -37 -88 -83 30 -32 12
00000000: 81df c7f4 9391 498e f3b7 c0bc f308 63de
00000010: 1a34 e4df 191b ca6b 15b0 0aa6 4a4d 6151
00000020: b4fd 5134 3dbe 4672 ec4f cbdf 2520 18df
00000030: 124b 29d6 6852 a536 9829 ec26 28b8 b31b
00000040: 6b2e 22f6 07ce d120 2a86 08db dc39 f081
00000050: 93a9 95d6 03ea 64a5 e5dc 51ff 557a d436
00000060: 041c 5c21 b9ce f3c5 6813 678f 06f0 1990
00000070: 1309 1e09 2a99 53d2 402e 969d a532 d3a0
00000080: 2ea8 8c96 5328 6582 9619 1e59 a793 dff7
00000090: 3c3b a23f 142c cfab 58f0 45eb 525b b107
000000a0: 812d 770b 900f 26c2 f996 efca fae5 1079
000000b0: 6b28 d8d4 2bd7 ea9d c3b8 d900 5af3 118b
000000c0: f564 0cc9 c6ea 59d0 4226 cd6c 9fba 3905
000000d0: 0be2 b8be 292a cdbe 5d3c 2705 dd0f bf23
000000e0: 5ff3 3cc1 f6fd a41f d735 fc60 435a 4c59
000000f0: ec1b 9581 595f cfb1 a8fb dba8 ad1e e00c

tfl.pseudo_qconst5 i1 [1, 23, 1, 64]
-41 -19 41 21 -52 -100 -16 -30
-76 80 68 19 -72 1 -46 -56
124 113 -6 -14 -49 -2 7 81
-62 -57 -51 -33 39 -121 -5 -28
-78 -111 -85 21 47 -26 90 -101
-36 -64 -89 28 -92 -108 25 -67
52 2 127 18 -28 -127 63 -79
67 103 -127 -22 32 46 -62 -37
52 -68 -11 59 52 -74 -111 36
-51 -73 -31 -6 9 127 -18 -75
-32 37 -3 -99 55 79 5 -101
71 48 70 -93 15 70 71 18
73 -7 23 -66 14 -109 84 -68
82 71 38 -50 54 -125 57 -91
-53 -14 -84 67 88 -43 -71 -45
49 -7 58 127 36 -25 127 -17
11 -96 110 -38 -104 77 -76 -82
46 -127 38 127 77 67 6 -95
9 25 55 -114 127 30 -15 19
-28 6 101 -66 78 -11 96 42
-101 1 -25 -92 67 -62 26 -45
64 -36 56 120 -12 -1 19 -17
8 -76 -45 -14 -51 -9 96 79
0 59 8 101 52 -6 70 4
17 41 -29 51 123 17 -113 -68
-27 56 -61 31 -75 -65 -59 35
41 -48 41 -53 32 100 -46 84
-14 6 -4 25 97 12 -29 -127
-19 -10 25 -5 -53 58 88 40
7 -10 92 12 -101 -127 -96 -68
-40 -44 -44 8 -74 -15 -24 -28
-74 -89 106 86 -87 96 -90 88
00000000: d7ed 2915 cc9c f0e2 b450 4413 b801 d2c8
00000010: 7c71 faf2 cffe 0751 c2c7 cddf 2787 fbe4
00000020: b291 ab15 2fe6 5a9b dcc0 a71c a494 19bd
00000030: 3402 7f12 e481 3fb1 4367 81ea 202e c2db
00000040: 34bc f53b 34b6 9124 cdb7 e1fa 097f eeb5
00000050: e025 fd9d 374f 059b 4730 46a3 0f46 4712
00000060: 49f9 17be 0e93 54bc 5247 26ce 3683 39a5
00000070: cbf2 ac43 58d5 b9d3 31f9 3a7f 24e7 7fef
00000080: 0ba0 6eda 984d b4ae 2e81 267f 4d43 06a1
00000090: 0919 378e 7f1e f113 e406 65be 4ef5 602a
000000a0: 9b01 e7a4 43c2 1ad3 40dc 3878 f4ff 13ef
000000b0: 08b4 d3f2 cdf7 604f 003b 0865 34fa 4604
000000c0: 1129 e333 7b11 8fbc e538 c31f b5bf c523
000000d0: 29d0 29cb 2064 d254 f206 fc19 610c e381
000000e0: edf6 19fb cb3a 5828 07f6 5c0c 9b81 a0bc
000000f0: d8d4 d408 b6f1 e8e4 b6a7 6a56 a960 a658

tfl.pseudo_qconst7 i1 [64, 1, 1, 64]
-66 25 -24 70 -53 76 -2 77
-16 104 72 -89 21 -26 -58 55
-57 86 -95 56 72 -28 -111 -95
-107 -93 5 87 20 -97 -33 -24
-77 23 127 25 86 23 -87 -17
74 -18 88 -61 -100 -31 -119 -61
40 60 -33 19 42 10 57 76
52 -66 -3 97 101 88 123 -25
-25 81 51 24 99 -73 96 -14
40 25 -86 121 107 -86 -1 22
35 25 45 105 107 49 66 40
-34 -52 -17 -122 40 10 -25 25
-103 107 -62 66 -15 41 52 -6
120 82 -18 47 84 58 -87 125
-34 -107 90 13 45 23 -9 47
-43 4 87 -87 -127 91 -94 -47
39 -90 39 20 24 -37 13 -42
-15 91 27 -80 -23 -12 -79 -107
58 6 56 -52 -78 82 -127 66
34 -81 96 73 -91 -74 -31 72
-119 -111 -75 22 -37 -115 -50 -42
120 -100 -45 16 55 -49 45 57
-74 -96 107 44 -9 8 110 117
58 87 -100 55 -83 114 -41 106
-1 -74 -45 -97 -89 -30 33 79
102 -47 -1 79 69 -88 -84 44
115 -37 -55 82 127 -105 70 79
-90 -24 -51 -36 -36 24 26 -76
-57 -15 48 36 102 -90 40 -56
31 -94 -21 0 -19 19 116 77
-105 111 104 3 -7 51 3 61
109 47 -51 107 -83 -31 -16 -23
00000000: be19 e846 cb4c fe4d f068 48a7 15e6 c637
00000010: c756 a138 48e4 91a1 95a3 0557 149f dfe8
00000020: b317 7f19 5617 a9ef 4aee 58c3 9ce1 89c3
00000030: 283c df13 2a0a 394c 34be fd61 6558 7be7
00000040: e751 3318 63b7 60f2 2819 aa79 6baa ff16
00000050: 2319 2d69 6b31 4228 decc ef86 280a e719
00000060: 996b c242 f129 34fa 7852 ee2f 543a a97d
00000070: de95 5a0d 2d17 f72f d504 57a9 815b a2d1
00000080: 27a6 2714 18db 0dd6 f15b 1bb0 e9f4 b195
00000090: 3a06 38cc b252 8142 22af 6049 a5b6 e148
000000a0: 8991 b516 db8d ced6 789c d310 37cf 2d39
000000b0: b6a0 6b2c f708 6e75 3a57 9c37 ad72 d76a
000000c0: ffb6 d39f a7e2 214f 66d1 ff4f 45a8 ac2c
000000d0: 73db c952 7f97 464f a6e8 cddc dc18 1ab4
000000e0: c7f1 3024 66a6 28c8 1fa2 eb00 ed13 744d
000000f0: 976f 6803 f933 033d 6d2f cd6b ade1 f0e9

tfl.pseudo_qconst9 i1 [1, 15, 1, 32]
-86 17 127 79 -18 -95 89 58
102 74 38 111 47 -127 37 69
6 113 -32 -81 -38 80 -16 -127
104 -88 -51 -86 67 -42 34 -57
-91 -7 -48 -110 104 -78 91 -11
74 -65 -4 127 -127 27 -15 -18
120 -85 89 -47 87 40 -10 5
-73 -53 55 76 14 -4 -5 102
91 -66 106 50 -102 27 79 11
55 63 68 -27 29 -73 -27 -38
-107 127 38 -66 64 -19 57 64
-101 -55 40 117 -33 92 -20 -92
4 83 126 82 -56 41 -72 -14
8 -125 -40 -75 -87 -25 54 -14
74 -92 36 40 84 -5 -71 -10
-48 -7 -16 71 -8 77 -73 -81
-35 122 -105 12 13 -80 -91 -62
19 2 -18 16 -20 31 75 -6
60 102 -40 -85 -10 -115 97 83
-106 -103 5 -40 -27 104 99 -39
-16 -55 78 6 -103 97 54 -2
-102 -2 -49 102 -31 -46 -49 -95
-127 36 5 -123 5 -44 127 -41
-19 -22 55 -70 -109 26 77 -88
100 10 30 11 -51 -87 -66 -89
85 34 -35 -81 43 31 -4 -10
65 42 43 79 28 16 112 -94
-127 17 -80 127 56 127 14 -27
30 13 9 -90 -38 -88 0 -56
-79 -69 -38 -65 -87 127 29 22
-57 -68 -46 74 -18 -58 20 92
-22 84 -127 35 -44 104 76 125
00000000: aa11 7f4f eea1 593a 664a 266f 2f81 2545
00000010: 0671 e0af da50 f081 68a8 cdaa 43d6 22c7
00000020: a5f9 d092 68b2 5bf5 4abf fc7f 811b f1ee
00000030: 78ab 59d1 5728 f605 b7cb 374c 0efc fb66
00000040: 5bbe 6a32 9a1b 4f0b 373f 44e5 1db7 e5da
00000050: 957f 26be 40ed 3940 9bc9 2875 df5c eca4
00000060: 0453 7e52 c829 b8f2 0883 d8b5 a9e7 36f2
00000070: 4aa4 2428 54fb b9f6 d0f9 f047 f84d b7af
00000080: dd7a 970c 0db0 a5c2 1302 ee10 ec1f 4bfa
00000090: 3c66 d8ab f68d 6153 9699 05d8 e568 63d9
000000a0: f0c9 4e06 9961 36fe 9afe cf66 e1d2 cfa1
000000b0: 8124 0585 05d4 7fd7 edea 37ba 931a 4da8
000000c0: 640a 1e0b cda9 bea7 5522 ddaf 2b1f fcf6
000000d0: 412a 2b4f 1c10 70a2 8111 b07f 387f 0ee5
000000e0: 1e0d 09a6 daa8 00c8 b1bb dabf a97f 1d16
000000f0: c7bc d24a eec6 145c ea54 8123 d468 4c7d

tfl.pseudo_qconst11 i1 [1, 9, 1, 32]
99 16 -25 -31 39 112 73 -49
-27 127 -96 71 60 95 -55 -100
32 120 51 -121 -8 42 37 26
10 -6 -98 -54 -42 -49 70 127
-105 -6 83 115 -49 114 65 30
-85 76 127 -71 -31 7 26 0
85 -14 -82 114 0 11 97 4
21 -68 -84 102 68 -27 62 3
22 -34 -96 -127 114 -90 -32 -96
16 -44 -105 -33 100 -67 54 127
-50 -112 102 21 127 -3 73 30
-69 -83 -127 22 94 127 15 -17
49 -80 -127 99 -80 -20 -54 -127
-106 -52 0 111 -28 -91 45 -61
-74 33 127 -2 119 -127 24 28
11 105 -58 91 -118 54 94 -64
54 26 -98 110 -110 -30 67 7
-61 114 -76 -127 -83 -39 83 -5
122 27 -74 -22 -59 -127 67 29
-127 6 18 -57 42 38 -112 29
-77 -11 21 105 92 55 127 120
-127 22 -42 -59 -87 -42 89 93
97 -99 85 64 -93 52 -58 56
26 -41 38 -40 127 -110 -4 116
56 -39 -97 -36 63 28 -89 -100
-88 99 -106 -120 -127 88 -127 93
66 -23 70 93 -25 58 -127 127
-65 -55 116 -43 49 -66 67 17
-58 -7 -51 49 -19 102 76 48
23 -5 75 -58 -60 13 -27 28
-127 -55 127 127 -80 89 33 122
89 25 118 -5 -50 28 47 81
00000000: 6310 e7e1 2770 49cf e57f a047 3c5f c99c
00000010: 2078 3387 f82a 251a 0afa 9eca d6cf 467f
00000020: 97fa 5373 cf72 411e ab4c 7fb9 e107 1a00
00000030: 55f2 ae72 000b 6104 15bc ac66 44e5 3e03
00000040: 16de a081 72a6 e0a0 10d4 97df 64bd 367f
00000050: ce90 6615 7ffd 491e bbad 8116 5e7f 0fef
00000060: 31b0 8163 b0ec ca81 96cc 006f e4a5 2dc3
00000070: b621 7ffe 7781 181c 0b69 c65b 8a36 5ec0
00000080: 361a 9e6e 92e2 4307 c372 b481 add9 53fb
00000090: 7a1b b6ea c581 431d 8106 12c7 2a26 901d
000000a0: b3f5 1569 5c37 7f78 8116 d6c5 a9d6 595d
000000b0: 619d 5540 a334 c638 1ad7 26d8 7f92 fc74
000000c0: 38d9 9fdc 3f1c a79c a863 9688 8158 815d
000000d0: 42e9 465d e73a 817f bfc9 74d5 31be 4311
000000e0: c6f9 cd31 ed66 4c30 17fb 4bc6 c40d e51c
000000f0: 81c9 7f7f b059 217a 5919 76fb ce1c 2f51

tfl.pseudo_qconst13 i1 [64, 1, 1, 64]
-56 83 82 -67 -78 -60 -93 3
36 -23 -15 92 -51 81 -21 102
35 63 28 0 65 -26 -45 99
14 27 -21 43 -46 49 73 -12
-22 112 -61 21 -71 -20 -82 -111
-105 -127 89 36 -21 -63 -60 -87
85 17 -11 -43 -73 -53 44 71
-19 113 63 -70 -91 -43 10 76
102 -81 5 29 2 -69 15 -99
-91 -127 10 90 -6 75 -60 -2
-65 -1 89 -48 48 -37 -7 -108
110 -83 27 40 -21 -70 -70 37
61 -11 91 39 -15 -92 43 62
93 18 -31 -39 -74 65 -105 41
-68 -29 -17 -105 122 -25 -53 -16
24 22 -95 -2 122 111 -92 17
-78 50 30 12 -60 -10 -5 76
-18 123 -12 -84 -39 14 81 -67
-76 -35 -72 -31 -60 -83 82 60
-39 65 65 -17 24 0 -19 -84
-80 110 -22 87 -9 -67 -62 -48
-10 -16 86 -61 -81 59 -9 13
3 34 0 -61 -13 13 11 0
-7 -3 -51 47 -106 -20 56 127
-32 27 60 -92 13 8 -95 -111
71 -103 32 -113 -102 37 -24 127
123 98 -48 92 77 -84 -47 -94
-61 39 82 91 44 -13 78 -51
-41 93 101 -81 51 97 -34 -28
-14 106 19 -22 20 -20 54 58
-10 73 -116 124 116 76 -83 11
99 48 44 62 -53 -68 -107 -59
00000000: c853 52bd b2c4 a303 24e9 f15c cd51 eb66
00000010: 233f 1c00 41e6 d363 0e1b eb2b d231 49f4
00000020: ea70 c315 b9ec ae91 9781 5924 ebc1 c4a9
00000030: 5511 f5d5 b7cb 2c47 ed71 3fba a5d5 0a4c
00000040: 66af 051d 02bb 0f9d a581 0a5a fa4b c4fe
00000050: bfff 59d0 30db f994 6ead 1b28 ebba ba25
00000060: 3df5 5b27 f1a4 2b3e 5d12 e1d9 b641 9729
00000070: bce3 ef97 7ae7 cbf0 1816 a1fe 7a6f a411
00000080: b232 1e0c c4f6 fb4c ee7b f4ac d90e 51bd
00000090: b4dd b8e1 c4ad 523c d941 41ef 1800 edac
000000a0: b06e ea57 f7bd c2d0 f6f0 56c3 af3b f70d
000000b0: 0322 00c3 f30d 0b00 f9fd cd2f 96ec 387f
000000c0: e01b 3ca4 0d08 a191 4799 208f 9a25 e87f
000000d0: 7b62 d05c 4dac d1a2 c327 525b 2cf3 4ecd
000000e0: d75d 65af 3361 dee4 f26a 13ea 14ec 363a
000000f0: f649 8c7c 744c ad0b 6330 2c3e cbbc 95c5

tfl.pseudo_qconst15 i1 [1, 11, 1, 32]
-56 127 62 -48 -95 109 -82 -47
79 -127 -127 36 0 -127 -62 38
24 -51 -64 -109 100 -24 120 -9
-65 51 53 -56 86 -87 -127 7
-79 39 -60 77 -73 57 -71 -69
-96 -69 -81 -94 -15 -82 53 6
-92 37 63 -66 -52 -10 78 -103
98 41 68 -24 -94 38 53 39
-54 -116 -90 -27 -2 19 -75 59
108 -87 91 103 -93 -75 -100 -70
-127 16 75 -111 -39 52 127 6
15 -19 16 68 -102 -114 -118 31
-17 24 82 78 68 63 -127 104
81 45 -99 -6 15 -104 83 109
67 -100 -67 -111 59 21 18 127
-18 -83 -32 -61 -115 -11 -26 -18
-127 13 54 127 1 15 -79 88
-25 17 -98 -81 1 -124 30 -95
-77 90 -127 -4 33 -21 -117 -80
-63 -59 56 108 -30 122 -79 -127
20 -87 -20 -88 80 -9 24 76
-127 -42 -14 -31 45 -23 127 108
45 122 -15 36 -107 127 -85 -32
43 -114 -56 -54 26 113 42 -59
-69 117 -8 23 19 -86 -18 99
-33 99 82 -49 51 80 -15 -94
114 127 -41 46 -61 33 127 -28
28 -91 127 -97 86 -21 94 73
88 87 32 82 -92 -5 92 67
-119 -108 31 -54 35 44 1 -48
4 65 113 -81 112 -7 -82 -31
43 -127 58 -2 -127 -109 -85 -17
00000000: c87f 3ed0 a16d aed1 4f81 8124 0081 c226
00000010: 18cd c093 64e8 78f7 bf33 35c8 56a9 8107
00000020: b127 c44d b739 b9bb a0bb afa2 f1ae 3506
00000030: a425 3fbe ccf6 4e99 6229 44e8 a226 3527
00000040: ca8c a6e5 fe13 b53b 6ca9 5b67 a3b5 9cba
00000050: 8110 4b91 d934 7f06 0fed 1044 9a8e 8a1f
00000060: ef18 524e 443f 8168 512d 9dfa 0f98 536d
00000070: 439c bd91 3b15 127f eead e0c3 8df5 e6ee
00000080: 810d 367f 010f b158 e711 9eaf 0184 1ea1
00000090: b35a 81fc 21eb 8bb0 c1c5 386c e27a b181
000000a0: 14a9 eca8 50f7 184c 81d6 f2e1 2de9 7f6c
000000b0: 2d7a f124 957f abe0 2b8e c8ca 1a71 2ac5
000000c0: bb75 f817 13aa ee63 df63 52cf 3350 f1a2
000000d0: 727f d72e c321 7fe4 1ca5 7f9f 56eb 5e49
000000e0: 5857 2052 a4fb 5c43 8994 1fca 232c 01d0
000000f0: 0441 71af 70f9 aee1 2b81 3afe 8193 abef

tfl.pseudo_qconst17 i1 [1, 7, 1, 32]
85 21 -57 68 -88 -20 -63 -14
127 -36 -127 -17 -19 102 118 -102
-115 -124 51 -126 -22 52 17 -88
88 29 -28 -106 26 22 -33 -127
86 -97 -107 32 -24 66 -12 1
-98 -21 -41 26 -21 21 47 36
58 127 30 -27 3 -105 -69 111
23 -72 3 54 -127 -25 -116 125
79 33 -4 -107 -7 81 84 -127
95 42 3 -79 -101 40 -3 44
-9 -91 19 45 126 35 -26 -66
-89 37 -11 -115 22 -90 -76 -41
-101 127 127 -42 -47 -97 68 -6
-69 59 14 -85 -30 92 68 -127
-1 77 -76 -65 -111 -68 -80 100
36 12 127 -91 52 -105 16 124
-127 38 -62 71 72 -77 21 95
61 10 7 -127 -80 8 -22 -35
12 -1 6 8 75 -11 -127 -18
-7 -76 -50 127 -107 -99 127 -6
-106 -120 -8 67 -127 -62 -127 126
-54 113 11 104 -127 114 29 69
127 74 -73 -127 -9 9 -66 27
127 -127 -7 108 96 74 126 -59
-20 3 119 127 28 -127 -110 -107
-52 127 101 -91 -90 127 -127 88
106 67 -127 70 127 -127 28 127
58 -101 -113 51 62 127 -68 -115
00000000: 5515 c744 a8ec c1f2 7fdc 81ef ed66 769a
00000010: 8d84 3382 ea34 11a8 581d e496 1a16 df81
00000020: 569f 9520 e842 f401 9eeb d71a eb15 2f24
00000030: 3a7f 1ee5 0397 bb6f 17b8 0336 81e7 8c7d
00000040: 4f21 fc95 f951 5481 5f2a 03b1 9b28 fd2c
00000050: f7a5 132d 7e23 e6be a725 f58d 16a6 b4d7
00000060: 9b7f 7fd6 d19f 44fa bb3b 0eab e25c 4481
00000070: ff4d b4bf 91bc b064 240c 7fa5 3497 107c
00000080: 8126 c247 48b3 155f 3d0a 0781 b008 eadd
00000090: 0cff 0608 4bf5 81ee f9b4 ce7f 959d 7ffa
000000a0: 9688 f843 81c2 817e ca71 0b68 8172 1d45
000000b0: 7f4a b781 f709 be1b 7f81 f96c 604a 7ec5
000000c0: ec03 777f 1c81 9295 cc7f 65a5 a67f 8158
000000d0: 6a43 8146 7f81 1c7f 3a9b 8f33 3e7f bc8d

tfl.pseudo_qconst19 i1 [64, 1, 1, 32]
-22 -114 77 -22 10 102 104 99
-26 -127 65 97 -23 26 65 53
-87 20 2 43 94 69 9 -27
28 -44 -38 -59 -115 -24 -67 99
60 -32 63 86 22 -21 -109 80
-18 -92 -63 -68 42 -78 39 -5
31 -27 34 83 -14 49 101 -47
-63 81 -46 63 127 80 2 40
32 24 111 53 -103 74 -11 34
-40 74 64 99 88 20 -115 127
98 -35 29 -72 75 -32 -61 -8
-86 5 72 24 -105 72 31 41
54 96 38 -36 -91 98 87 -26
-57 -105 100 -9 -30 110 17 -47
55 -112 45 -44 -104 -3 -119 97
-96 96 -25 -36 20 -73 18 127
99 40 60 59 30 97 55 50
-106 46 -7 -113 -16 -26 -63 115
-67 -46 -84 88 -97 75 54 -116
127 -120 56 -4 -3 -43 65 62
-49 -34 -21 -24 -29 -84 -68 -67
15 28 -10 15 -99 65 -15 -74
-127 -16 -86 -40 -91 -2 -77 -80
88 17 89 100 21 -78 94 -72
93 -73 90 72 -59 -77 0 8
6 47 127 121 -53 -51 122 70
-61 -4 63 106 38 -124 -114 41
-15 -58 -84 7 12 -5 49 78
7 8 -32 -39 65 31 -6 58
39 -55 127 -125 -46 -127 -29 -66
-21 48 22 98 46 -17 82 76
-35 -27 41 10 43 24 -48 -34
00000000: ea8e 4dea 0a66 6863 e681 4161 e91a 4135
00000010: a914 022b 5e45 09e5 1cd4 dac5 8de8 bd63
00000020: 3ce0 3f56 16eb 9350 eea4 c1bc 2ab2 27fb
00000030: 1fe5 2253 f231 65d1 c151 d23f 7f50 0228
00000040: 2018 6f35 994a f522 d84a 4063 5814 8d7f
00000050: 62dd 1db8 4be0 c3f8 aa05 4818 9748 1f29
00000060: 3660 26dc a562 57e6 c797 64f7 e26e 11d1
00000070: 3790 2dd4 98fd 8961 a060 e7dc 14b7 127f
00000080: 6328 3c3b 1e61 3732 962e f98f f0e6 c173
00000090: bdd2 ac58 9f4b 368c 7f88 38fc fdd5 413e
000000a0: cfde ebe8 e3ac bcbd 0f1c f60f 9d41 f1b6
000000b0: 81f0 aad8 a5fe b3b0 5811 5964 15b2 5eb8
000000c0: 5db7 5a48 c5b3 0008 062f 7f79 cbcd 7a46
000000d0: c3fc 3f6a 2684 8e29 f1c6 ac07 0cfb 314e
000000e0: 0708 e0d9 411f fa3a 27c9 7f83 d281 e3be
000000f0: eb30 1662 2eef 524c dde5 290a 2b18 d0de

tfl.pseudo_qconst21 i1 [1, 5, 1, 32]
-117 114 52 37 14 -127 -80 64
87 127 127 -127 127 -85 -47 127
-114 -28 -57 -1 127 -37 0 -78
-6 87 -75 -127 -111 127 25 -49
-1 4 127 76 53 53 -67 -55
54 30 -100 -74 7 -67 -73 -19
-127 -127 -15 106 23 -97 -127 -2
-55 -127 -82 -9 -9 -15 111 -2
-7 67 48 127 -108 113 -50 68
6 43 -22 -76 56 -122 -127 0
111 15 -3 93 28 10 -105 -127
127 49 -100 -24 -85 -123 127 127
12 127 -22 -8 -127 -74 -127 -63
127 -86 72 99 77 -127 5 -73
-102 -100 -127 -52 -120 -78 6 -106
-10 -8 -127 -89 -21 -126 112 -102
-127 63 101 73 11 76 107 -127
-76 47 -117 21 -11 20 32 -92
33 29 97 -127 102 127 -74 36
17 -64 -24 -2 -127 39 32 -15
00000000: 8b72 3425 0e81 b040 577f 7f81 7fab d17f
00000010: 8ee4 c7ff 7fdb 00b2 fa57 b581 917f 19cf
00000020: ff04 7f4c 3535 bdc9 361e 9cb6 07bd b7ed
00000030: 8181 f16a 179f 81fe c981 aef7 f7f1 6ffe
00000040: f943 307f 9471 ce44 062b eab4 3886 8100
00000050: 6f0f fd5d 1c0a 9781 7f31 9ce8 ab85 7f7f
00000060: 0c7f eaf8 81b6 81c1 7faa 4863 4d81 05b7
00000070: 9a9c 81cc 88b2 0696 f6f8 81a7 eb82 709a
00000080: 813f 6549 0b4c 6b81 b42f 8b15 f514 20a4
00000090: 211d 6181 667f b624 11c0 e8fe 8127 20f1

tfl.pseudo_qconst23 i1 [32, 5, 1, 40]
-94 -20 66 -89 -5 82 36 4
-7 -102 -11 89 -88 76 -8 -82
-63 -95 88 69 47 -20 -33 74
-90 100 81 -71 15 52 -19 97
28 75 -55 25 36 -76 6 48
-60 51 50 -1 -57 68 -51 50
4 54 -72 0 52 12 13 -83
8 -30 -42 -16 -66 12 -78 53
39 -68 62 75 85 91 57 42
113 24 -17 62 22 -17 48 38
104 46 -74 -29 -66 56 -84 -23
-26 90 -35 -10 -46 22 11 -37
63 -64 25 27 38 71 -5 105
-59 -10 -23 -79 8 -79 78 7
-54 -24 -6 23 -29 95 63 56
90 0 49 19 -57 -59 57 43
8 20 6 63 -61 -21 5 -89
37 -1 1 127 -12 121 97 67
-31 5 83 64 -73 34 45 28
27 19 56 -41 4 23 -81 77
78 96 -48 127 63 84 25 -30
78 31 45 69 43 -50 80 55
22 36 45 27 74 -26 98 29
-72 0 99 -22 -12 -48 62 -48
-62 40 17 -70 -49 36 -34 57
15 18 -12 -87 -24 11 36 38
-82 10 -72 20 85 120 -22 -88
58 58 -105 97 74 -80 -11 -49
-11 51 88 -10 -7 42 28 -66
34 -17 -7 -34 -55 33 -19 82
16 -53 25 -24 -47 -49 46 -65
12 13 84 15 24 -48 -43 -5
00000000: a2ec 42a7 fb52 2404 f99a f559 a84c f8ae
00000010: c1a1 5845 2fec df4a a664 51b9 0f34 ed61
00000020: 1c4b c919 24b4 0630 c433 32ff c744 cd32
00000030: 0436 b800 340c 0dad 08e2 d6f0 be0c b235
00000040: 27bc 3e4b 555b 392a 7118 ef3e 16ef 3026
00000050: 682e b6e3 be38 ace9 e65a ddf6 d216 0bdb
00000060: 3fc0 191b 2647 fb69 c5f6 e9b1 08b1 4e07
00000070: cae8 fa17 e35f 3f38 5a00 3113 c7c5 392b
00000080: 0814 063f c3eb 05a7 25ff 017f f479 6143
00000090: e105 5340 b722 2d1c 1b13 38d7 0417 af4d
000000a0: 4e60 d07f 3f54 19e2 4e1f 2d45 2bce 5037
000000b0: 1624 2d1b 4ae6 621d b800 63ea f4d0 3ed0
000000c0: c228 11ba cf24 de39 0f12 f4a9 e80b 2426
000000d0: ae0a b814 5578 eaa8 3a3a 9761 4ab0 f5cf
000000e0: f533 58f6 f92a 1cbe 22ef f9de c921 ed52
000000f0: 10cb 19e8 d1cf 2ebf 0c0d 540f 18d0 d5fb

tfl.pseudo_qconst24 i1 [1, 22, 1, 64] scale=0.033010732 zero_point=-128
0.0 0.0 0.0 0.0 0.0 0.0 0.0 0.0
0.0 0.0 0.0 0.0 0.0 0.0 0.0 0.0
0.0 0.0 0.0 0.0 0.0 0.0 0.0 0.0
0.0 0.0 0.0 0.0 0.0 0.0 0.0 0.0
0.0 0.0 0.0 0.0 0.0 0.0 0.0 0.0
0.0 0.0 0.0 0.0 0.0 0.0 0.0 0.0
0.0 0.0 0.0 0.0 0.0 0.0 0.0 0.0
0.0 0.0 0.0 0.0 0.0 0.0 0.0 0.0
0.0 0.0 0.0 0.0 0.0 0.0 0.0 0.0
0.0 0.0 0.0 0.0 0.0 0.0 0.0 0.0
0.0 0.0 0.0 0.0 0.0 0.0 0.0 0.0
0.0 0.0 0.0 0.0 0.0 0.0 0.0 0.0
0.0 0.0 0.0 0.0 0.0 0.0 0.0 0.0
0.0 0.0 0.0 0.0 0.0 0.0 0.0 0.0
0.0 0.0 0.0 0.0 0.0 0.0 0.0 0.0
0.0 0.0 0.0 0.0 0.0 0.0 0.0 0.0
0.0 0.0 0.0 0.0 0.0 0.0 0.0 0.0
0.0 0.0 0.0 0.0 0.0 0.0 0.0 0.0
0.0 0.0 0.0 0.0 0.0 0.0 0.0 0.0
0.0 0.0 0.0 0.0 0.0 0.0 0.0 0.0
0.0 0.0 0.0 0.0 0.0 0.0 0.0 0.0
0.0 0.0 0.0 0.0 0.0 0.0 0.0 0.0
0.0 0.0 0.0 0.0 0.0 0.0 0.0 0.0
0.0 0.0 0.0 0.0 0.0 0.0 0.0 0.0
0.0 0.0 0.0 0.0 0.0 0.0 0.0 0.0
0.0 0.0 0.0 0.0 0.0 0.0 0.0 0.0
0.0 0.0 0.0 0.0 0.0 0.0 0.0 0.0
0.0 0.0 0.0 0.0 0.0 0.0 0.0 0.0
0.0 0.0 0.0 0.0 0.0 0.0 0.0 0.0
0.0 0.0 0.0 0.0 0.0 0.0 0.0 0.0
0.0 0.0 0.0 0.0 0.0 0.0 0.0 0.0
0.0 0.0 0.0 0.0 0.0 0.0 0.0 0.0
00000000: 8080 8080 8080 8080 8080 8080 8080 8080
00000010: 8080 8080 8080 8080 8080 8080 8080 8080
00000020: 8080 8080 8080 8080 8080 8080 8080 8080
00000030: 8080 8080 8080 8080 8080 8080 8080 8080
00000040: 8080 8080 8080 8080 8080 8080 8080 8080
00000050: 8080 8080 8080 8080 8080 8080 8080 8080
00000060: 8080 8080 8080 8080 8080 8080 8080 8080
00000070: 8080 8080 8080 8080 8080 8080 8080 8080
00000080: 8080 8080 8080 8080 8080 8080 8080 8080
00000090: 8080 8080 8080 8080 8080 8080 8080 8080
000000a0: 8080 8080 8080 8080 8080 8080 8080 8080
000000b0: 8080 8080 8080 8080 8080 8080 8080 8080
000000c0: 8080 8080 8080 8080 8080 8080 8080 8080
000000d0: 8080 8080 8080 8080 8080 8080 8080 8080
000000e0: 8080 8080 8080 8080 8080 8080 8080 8080
000000f0: 8080 8080 8080 8080 8080 8080 8080 8080

tfl.pseudo_qconst25 i1 [1, 16, 1, 64] scale=0.025035683 zero_point=-128
0.0 0.0 0.0 0.0 0.0 0.0 0.0 0.0
0.0 0.0 0.0 0.0 0.0 0.0 0.0 0.0
0.0 0.0 0.0 0.0 0.0 0.0 0.0 0.0
0.0 0.0 0.0 0.0 0.0 0.0 0.0 0.0
0.0 0.0 0.0 0.0 0.0 0.0 0.0 0.0
0.0 0.0 0.0 0.0 0.0 0.0 0.0 0.0
0.0 0.0 0.0 0.0 0.0 0.0 0.0 0.0
0.0 0.0 0.0 0.0 0.0 0.0 0.0 0.0
0.0 0.0 0.0 0.0 0.0 0.0 0.0 0.0
0.0 0.0 0.0 0.0 0.0 0.0 0.0 0.0
0.0 0.0 0.0 0.0 0.0 0.0 0.0 0.0
0.0 0.0 0.0 0.0 0.0 0.0 0.0 0.0
0.0 0.0 0.0 0.0 0.0 0.0 0.0 0.0
0.0 0.0 0.0 0.0 0.0 0.0 0.0 0.0
0.0 0.0 0.0 0.0 0.0 0.0 0.0 0.0
0.0 0.0 0.0 0.0 0.0 0.0 0.0 0.0
0.0 0.0 0.0 0.0 0.0 0.0 0.0 0.0
0.0 0.0 0.0 0.0 0.0 0.0 0.0 0.0
0.0 0.0 0.0 0.0 0.0 0.0 0.0 0.0
0.0 0.0 0.0 0.0 0.0 0.0 0.0 0.0
0.0 0.0 0.0 0.0 0.0 0.0 0.0 0.0
0.0 0.0 0.0 0.0 0.0 0.0 0.0 0.0
0.0 0.0 0.0 0.0 0.0 0.0 0.0 0.0
0.0 0.0 0.0 0.0 0.0 0.0 0.0 0.0
0.0 0.0 0.0 0.0 0.0 0.0 0.0 0.0
0.0 0.0 0.0 0.0 0.0 0.0 0.0 0.0
0.0 0.0 0.0 0.0 0.0 0.0 0.0 0.0
0.0 0.0 0.0 0.0 0.0 0.0 0.0 0.0
0.0 0.0 0.0 0.0 0.0 0.0 0.0 0.0
0.0 0.0 0.0 0.0 0.0 0.0 0.0 0.0
0.0 0.0 0.0 0.0 0.0 0.0 0.0 0.0
0.0 0.0 0.0 0.0 0.0 0.0 0.0 0.0
00000000: 8080 8080 8080 8080 8080 8080 8080 8080
00000010: 8080 8080 8080 8080 8080 8080 8080 8080
00000020: 8080 8080 8080 8080 8080 8080 8080 8080
00000030: 8080 8080 8080 8080 8080 8080 8080 8080
00000040: 8080 8080 8080 8080 8080 8080 8080 8080
00000050: 8080 8080 8080 8080 8080 8080 8080 8080
00000060: 8080 8080 8080 8080 8080 8080 8080 8080
00000070: 8080 8080 8080 8080 8080 8080 8080 8080
00000080: 8080 8080 8080 8080 8080 8080 8080 8080
00000090: 8080 8080 8080 8080 8080 8080 8080 8080
000000a0: 8080 8080 8080 8080 8080 8080 8080 8080
000000b0: 8080 8080 8080 8080 8080 8080 8080 8080
000000c0: 8080 8080 8080 8080 8080 8080 8080 8080
000000d0: 8080 8080 8080 8080 8080 8080 8080 8080
000000e0: 8080 8080 8080 8080 8080 8080 8080 8080
000000f0: 8080 8080 8080 8080 8080 8080 8080 8080

tfl.pseudo_qconst26 i1 [1, 2, 1, 40] scale=0.101960786 zero_point=-128
0.0 0.0 0.0 0.0 0.0 0.0 0.0 0.0
0.0 0.0 0.0 0.0 0.0 0.0 0.0 0.0
0.0 0.0 0.0 0.0 0.0 0.0 0.0 0.0
0.0 0.0 0.0 0.0 0.0 0.0 0.0 0.0
0.0 0.0 0.0 0.0 0.0 0.0 0.0 0.0
0.0 0.0 0.0 0.0 0.0 0.0 0.0 0.0
0.0 0.0 0.0 0.0 0.0 0.0 0.0 0.0
0.0 0.0 0.0 0.0 0.0 0.0 0.0 0.0
0.0 0.0 0.0 0.0 0.0 0.0 0.0 0.0
0.0 0.0 0.0 0.0 0.0 0.0 0.0 0.0
00000000: 8080 8080 8080 8080 8080 8080 8080 8080
00000010: 8080 8080 8080 8080 8080 8080 8080 8080
00000020: 8080 8080 8080 8080 8080 8080 8080 8080
00000030: 8080 8080 8080 8080 8080 8080 8080 8080
00000040: 8080 8080 8080 8080 8080 8080 8080 8080

tfl.pseudo_qconst27 i1 [1, 4, 1, 32] scale=0.3002912 zero_point=-128
0.0 0.0 0.0 0.0 0.0 0.0 0.0 0.0
0.0 0.0 0.0 0.0 0.0 0.0 0.0 0.0
0.0 0.0 0.0 0.0 0.0 0.0 0.0 0.0
0.0 0.0 0.0 0.0 0.0 0.0 0.0 0.0
0.0 0.0 0.0 0.0 0.0 0.0 0.0 0.0
0.0 0.0 0.0 0.0 0.0 0.0 0.0 0.0
0.0 0.0 0.0 0.0 0.0 0.0 0.0 0.0
0.0 0.0 0.0 0.0 0.0 0.0 0.0 0.0
0.0 0.0 0.0 0.0 0.0 0.0 0.0 0.0
0.0 0.0 0.0 0.0 0.0 0.0 0.0 0.0
0.0 0.0 0.0 0.0 0.0 0.0 0.0 0.0
0.0 0.0 0.0 0.0 0.0 0.0 0.0 0.0
0.0 0.0 0.0 0.0 0.0 0.0 0.0 0.0
0.0 0.0 0.0 0.0 0.0 0.0 0.0 0.0
0.0 0.0 0.0 0.0 0.0 0.0 0.0 0.0
0.0 0.0 0.0 0.0 0.0 0.0 0.0 0.0
00000000: 8080 8080 8080 8080 8080 8080 8080 8080
00000010: 8080 8080 8080 8080 8080 8080 8080 8080
00000020: 8080 8080 8080 8080 8080 8080 8080 8080
00000030: 8080 8080 8080 8080 8080 8080 8080 8080
00000040: 8080 8080 8080 8080 8080 8080 8080 8080
00000050: 8080 8080 8080 8080 8080 8080 8080 8080
00000060: 8080 8080 8080 8080 8080 8080 8080 8080
00000070: 8080 8080 8080 8080 8080 8080 8080 8080

tfl.pseudo_qconst28 i1 [1, 10, 1, 64] scale=0.040250618 zero_point=-128
0.0 0.0 0.0 0.0 0.0 0.0 0.0 0.0
0.0 0.0 0.0 0.0 0.0 0.0 0.0 0.0
0.0 0.0 0.0 0.0 0.0 0.0 0.0 0.0
0.0 0.0 0.0 0.0 0.0 0.0 0.0 0.0
0.0 0.0 0.0 0.0 0.0 0.0 0.0 0.0
0.0 0.0 0.0 0.0 0.0 0.0 0.0 0.0
0.0 0.0 0.0 0.0 0.0 0.0 0.0 0.0
0.0 0.0 0.0 0.0 0.0 0.0 0.0 0.0
0.0 0.0 0.0 0.0 0.0 0.0 0.0 0.0
0.0 0.0 0.0 0.0 0.0 0.0 0.0 0.0
0.0 0.0 0.0 0.0 0.0 0.0 0.0 0.0
0.0 0.0 0.0 0.0 0.0 0.0 0.0 0.0
0.0 0.0 0.0 0.0 0.0 0.0 0.0 0.0
0.0 0.0 0.0 0.0 0.0 0.0 0.0 0.0
0.0 0.0 0.0 0.0 0.0 0.0 0.0 0.0
0.0 0.0 0.0 0.0 0.0 0.0 0.0 0.0
0.0 0.0 0.0 0.0 0.0 0.0 0.0 0.0
0.0 0.0 0.0 0.0 0.0 0.0 0.0 0.0
0.0 0.0 0.0 0.0 0.0 0.0 0.0 0.0
0.0 0.0 0.0 0.0 0.0 0.0 0.0 0.0
0.0 0.0 0.0 0.0 0.0 0.0 0.0 0.0
0.0 0.0 0.0 0.0 0.0 0.0 0.0 0.0
0.0 0.0 0.0 0.0 0.0 0.0 0.0 0.0
0.0 0.0 0.0 0.0 0.0 0.0 0.0 0.0
0.0 0.0 0.0 0.0 0.0 0.0 0.0 0.0
0.0 0.0 0.0 0.0 0.0 0.0 0.0 0.0
0.0 0.0 0.0 0.0 0.0 0.0 0.0 0.0
0.0 0.0 0.0 0.0 0.0 0.0 0.0 0.0
0.0 0.0 0.0 0.0 0.0 0.0 0.0 0.0
0.0 0.0 0.0 0.0 0.0 0.0 0.0 0.0
0.0 0.0 0.0 0.0 0.0 0.0 0.0 0.0
0.0 0.0 0.0 0.0 0.0 0.0 0.0 0.0
00000000: 8080 8080 8080 8080 8080 8080 8080 8080
00000010: 8080 8080 8080 8080 8080 8080 8080 8080
00000020: 8080 8080 8080 8080 8080 8080 8080 8080
00000030: 8080 8080 8080 8080 8080 8080 8080 8080
00000040: 8080 8080 8080 8080 8080 8080 8080 8080
00000050: 8080 8080 8080 8080 8080 8080 8080 8080
00000060: 8080 8080 8080 8080 8080 8080 8080 8080
00000070: 8080 8080 8080 8080 8080 8080 8080 8080
00000080: 8080 8080 8080 8080 8080 8080 8080 8080
00000090: 8080 8080 8080 8080 8080 8080 8080 8080
000000a0: 8080 8080 8080 8080 8080 8080 8080 8080
000000b0: 8080 8080 8080 8080 8080 8080 8080 8080
000000c0: 8080 8080 8080 8080 8080 8080 8080 8080
000000d0: 8080 8080 8080 8080 8080 8080 8080 8080
000000e0: 8080 8080 8080 8080 8080 8080 8080 8080
000000f0: 8080 8080 8080 8080 8080 8080 8080 8080

tfl.pseudo_qconst29 i1 [1, 14, 1, 64] scale=0.03160341 zero_point=-128
0.0 0.0 0.0 0.0 0.0 0.0 0.0 0.0
0.0 0.0 0.0 0.0 0.0 0.0 0.0 0.0
0.0 0.0 0.0 0.0 0.0 0.0 0.0 0.0
0.0 0.0 0.0 0.0 0.0 0.0 0.0 0.0
0.0 0.0 0.0 0.0 0.0 0.0 0.0 0.0
0.0 0.0 0.0 0.0 0.0 0.0 0.0 0.0
0.0 0.0 0.0 0.0 0.0 0.0 0.0 0.0
0.0 0.0 0.0 0.0 0.0 0.0 0.0 0.0
0.0 0.0 0.0 0.0 0.0 0.0 0.0 0.0
0.0 0.0 0.0 0.0 0.0 0.0 0.0 0.0
0.0 0.0 0.0 0.0 0.0 0.0 0.0 0.0
0.0 0.0 0.0 0.0 0.0 0.0 0.0 0.0
0.0 0.0 0.0 0.0 0.0 0.0 0.0 0.0
0.0 0.0 0.0 0.0 0.0 0.0 0.0 0.0
0.0 0.0 0.0 0.0 0.0 0.0 0.0 0.0
0.0 0.0 0.0 0.0 0.0 0.0 0.0 0.0
0.0 0.0 0.0 0.0 0.0 0.0 0.0 0.0
0.0 0.0 0.0 0.0 0.0 0.0 0.0 0.0
0.0 0.0 0.0 0.0 0.0 0.0 0.0 0.0
0.0 0.0 0.0 0.0 0.0 0.0 0.0 0.0
0.0 0.0 0.0 0.0 0.0 0.0 0.0 0.0
0.0 0.0 0.0 0.0 0.0 0.0 0.0 0.0
0.0 0.0 0.0 0.0 0.0 0.0 0.0 0.0
0.0 0.0 0.0 0.0 0.0 0.0 0.0 0.0
0.0 0.0 0.0 0.0 0.0 0.0 0.0 0.0
0.0 0.0 0.0 0.0 0.0 0.0 0.0 0.0
0.0 0.0 0.0 0.0 0.0 0.0 0.0 0.0
0.0 0.0 0.0 0.0 0.0 0.0 0.0 0.0
0.0 0.0 0.0 0.0 0.0 0.0 0.0 0.0
0.0 0.0 0.0 0.0 0.0 0.0 0.0 0.0
0.0 0.0 0.0 0.0 0.0 0.0 0.0 0.0
0.0 0.0 0.0 0.0 0.0 0.0 0.0 0.0
00000000: 8080 8080 8080 8080 8080 8080 8080 8080
00000010: 8080 8080 8080 8080 8080 8080 8080 8080
00000020: 8080 8080 8080 8080 8080 8080 8080 8080
00000030: 8080 8080 8080 8080 8080 8080 8080 8080
00000040: 8080 8080 8080 8080 8080 8080 8080 8080
00000050: 8080 8080 8080 8080 8080 8080 8080 8080
00000060: 8080 8080 8080 8080 8080 8080 8080 8080
00000070: 8080 8080 8080 8080 8080 8080 8080 8080
00000080: 8080 8080 8080 8080 8080 8080 8080 8080
00000090: 8080 8080 8080 8080 8080 8080 8080 8080
000000a0: 8080 8080 8080 8080 8080 8080 8080 8080
000000b0: 8080 8080 8080 8080 8080 8080 8080 8080
000000c0: 8080 8080 8080 8080 8080 8080 8080 8080
000000d0: 8080 8080 8080 8080 8080 8080 8080 8080
000000e0: 8080 8080 8080 8080 8080 8080 8080 8080
000000f0: 8080 8080 8080 8080 8080 8080 8080 8080
